dqn/checkpoint.pth (torch_old, 403508 bytes, 34 tensors)

conv1.weight f4 [16, 4, 5, 5]
00000000: e806 cc3c 3eca 593d 40ce 163c d912 c23d
00000010: 4c83 b83c 9e1e 2d3d 2289 703d f5ab aabd
00000020: 07c5 b03d 026d 513d df7c 963d 86a4 8abd
00000030: 3650 663d 984a 73bc c2db 7a3d c046 223c
00000040: 05ff b5bd d18f 963d eb4c 91bd b421 02bd
00000050: 80d9 f3bb 8144 a13d d032 3cbd d9b5 a83d
00000060: c632 83bd 309c c9bb 3a9f 89bd 7fd7 b3bd
00000070: 2db0 c7bd b8cd a0bc 8574 9e3d 3049 213c
00000080: 14cf fdbc 088e 87bc 71a9 9c3d c282 313d
00000090: 94fa a13c 9aa7 303d d4a0 e3bc 30ab 54bc
000000a0: 0521 a53d 8f42 c33d 5463 85bc 7a79 b2bd
000000b0: cf2c cabd f3c2 36bd 6b02 ac3d f267 063d
000000c0: d0cc 8bbb ea08 84bd 42f4 153d b1ac cb3d
000000d0: 938d b03d f4f1 86bd f4bb 03bd 3bfb 983d
000000e0: e8d3 b9bc 3124 c13d 90e5 09bc d53f 923d
000000f0: cc50 d53c 7a24 603d b170 9a3d 005d edbc
00000100: 60ef 853b 629c 153d 3895 80bc acd3 97bc
00000110: 889f 853c 30a8 00bd bd85 a5bd 6637 18bd
00000120: 9dea 88bd bb09 c8bd ba4d 3e3d f227 693d
00000130: 8698 07bd acbc f73c b2f4 94bd 9d30 abbd
00000140: 4d0b bbbd 2717 3cbd 9d94 73bd 25d6 bfbd
00000150: 5c52 f53c d080 023c 08e6 c4bd 6a91 383d
00000160: b277 693d 808b f73b 5832 f8bc 6c95 aebc
00000170: bb02 bd3d a73a 55bd 98e8 b8bd 5987 ac3d
00000180: 9756 b13d 03a6 8a3d e1cc b73d 6c4d d13c
00000190: 3b96 ab3d 13b0 acbd e3d2 bd3d 1812 973c
000001a0: ce0f 6b3d 00b8 3e3a 391e b83d 009f 11bb
000001b0: f1dc 8e3d 007c 923c a10f c73d c7ae bdbd
000001c0: 308b 09bc d0dc 37bd 6e78 653d f0c0 213c
000001d0: 37e5 8e3d 06eb 093d 8629 a5bd c6c9 453d
000001e0: 5ac5 01bd cfe4 c83d e3d8 b1bd cde3 b53d
000001f0: 97a1 853d c043 36bb dab5 40bd 6986 b63d
00000200: 4937 943d f44a 01bd 2309 22bd 2859 22bc
00000210: 70c7 0ebd f810 82bd 588c b1bc 8ffc b93d
00000220: da7b 1b3d da36 273d c1bf ae3d f8cc a6bd
00000230: 1835 e6bc 94fc 8d3c 9506 ca3d 0060 1cba
00000240: abed cb3d abe9 bc3d 4e34 86bd aa0b 7ebd
00000250: 2000 51bd d8bc 48bc 5865 423c 6f42 983d
00000260: 0c8c b13c 38f1 99bd 0b9c 96bd 38ea 98bc
00000270: dc1d f03c fc94 f23c 9372 b13d 5c9f db3c
00000280: 3523 b63d e47a e83c a3d2 30bd 50d0 28bc
00000290: 00ed 54bb 884b 85bd 4112 ba3d ecac e43c
000002a0: d4f1 ea3c 3df6 813d 6a36 6dbd 75b2 9dbd
000002b0: cd15 46bd e0a0 53bd 2e3d 5e3d ca40 4b3d
000002c0: 8588 90bd d2e7 193d 0a42 0abd 006c 733b
000002d0: 9501 99bd 8a7d 97bd f0cd 56bd 2860 2c3c
000002e0: b6da 033d 594b 883d 20c3 95bd e0d1 debb
000002f0: 8a2f b5bd 3ace 5f3d 513a 833d 2898 b0bd
00000300: 16fa 6b3d be8e 2e3d 0336 a33d b0f8 4dbd
00000310: e667 1e3d 3b84 b73d 012e 8e3d 5033 b63b
00000320: 3f5b bc3d 9563 babd 12e5 2f3d adb0 a0bd
00000330: 1045 a5bd 9b04 93bd 8b04 c23d 42dd 203d
00000340: e34b c13d d194 ca3d a337 9d3d 2d81 67bd
00000350: 480e b3bc ad39 aa3d 1d43 a23d 08b0 bdbc
00000360: f9b6 833d d0cd 0cbc b4c5 dd3c 75c3 be3d
00000370: a882 83bd 60b0 bb3c c0d5 3d3b 4d74 8d3d
00000380: 8ad2 aebd d2f3 783d 007b 733c 4080 6fbd
00000390: 607a 563b a656 0b3d ed3c 9bbd a0c8 923c
000003a0: ec7a e9bc b8c2 b2bd 24ab f73c fdee 4ebd
000003b0: e195 913d eb10 abbd dd4b 62bd 39d0 ac3d
000003c0: acd8 e8bc 20ab 87bc 57c8 b6bd 6b34 c2bd
000003d0: 0065 b73c ca86 3abd 439c 9c3d f041 523c
000003e0: 34bd ed3c f223 203d 03cd 893d 9c4f fc3c
000003f0: 0b0f cb3d cd27 c93d b85f 8abd 8917 8e3d
0.024905637 0.05317139 0.009204447 0.09476251 0.022523545 0.042265527 0.05872453 -0.083335795
0.0863133 0.05112935 0.07348036 -0.067696616 0.05622884 -0.0148493275 0.061244734 0.009904563
-0.08886532 0.073516496 -0.07094749 -0.031770423 -0.0074416995 0.07874394 -0.045946896 0.0823781
-0.06406169 -0.006152652 -0.06719823 -0.08781337 -0.097504 -0.019629344 0.07737068 0.009844109
-0.030982532 -0.016547218 0.07649506 0.04333759 0.019772805 0.043128587 -0.02778665 -0.012980267
0.080629386 0.095341794 -0.016282715 -0.08714576 -0.09871828 -0.04461951 0.08398899 0.032813974
-0.004266359 -0.06447013 0.036609896 0.09945048 0.08620753 -0.06589118 -0.032161668 0.074697934
-0.022684053 0.09430731 -0.008416548 0.07141081 0.026039504 0.054722287 0.075410254 -0.02897501
0.0040873736 0.03652609 -0.015696153 -0.01853355 0.016311422 -0.031410396 -0.08082149 -0.037162207
-0.06685374 -0.09767481 0.046460845 0.05692286 -0.033104442 0.030241333 -0.072732344 -0.083588816
-0.09133015 -0.045920517 -0.0594679 -0.09367017 0.029946499 0.007965282 -0.096141875 0.045060553
0.056998916 0.0075544715 -0.030297443 -0.021311484 0.092290364 -0.05205789 -0.09028739 0.08424253
0.08659094 0.067699455 0.089746244 0.025549613 0.083782636 -0.08432021 0.09268739 0.018441245
0.05738812 0.0007275343 0.089901395 -0.0022220016 0.06975735 0.017881393 0.09719778 -0.09261852
-0.008395001 -0.044888318 0.056023054 0.00987266 0.06977313 0.0336714 -0.080645606 0.04828813
-0.03168235 0.09809267 -0.08683946 0.0888134 0.065249614 -0.0027811378 -0.047048427 0.089123555
0.07237107 -0.03156562 -0.039559495 -0.009908952 -0.034858167 -0.06350893 -0.021673366 0.09081375
0.03795991 0.040823795 0.08532668 -0.081445634 -0.028101489 0.017332353 0.09864537 -0.0005965233
0.09957441 0.09224256 -0.06552945 -0.062022842 -0.05102551 -0.012252055 0.011864983 0.07434546
0.021673225 -0.07516712 -0.073539816 -0.018666372 0.029311113 0.029612057 0.086644314 0.026809387
0.08893434 0.028378911 -0.04316963 -0.010303572 -0.0032489896 -0.06508547 0.09085513 0.027914487
0.028679766 0.06345794 -0.05791322 -0.077000536 -0.048360635 -0.051667094 0.054257564 0.049622335
-0.07057289 0.037574597 -0.033754386 0.003714323 -0.07471005 -0.073969916 -0.05244249 0.010520972
0.032191 0.066549964 -0.07312608 -0.0067999214 -0.08846958 0.054640032 0.06407607 -0.086227715
0.057611547 0.0426166 0.07969286 -0.050285995 0.038673304 0.08960768 0.06942368 0.005560316
0.09197091 -0.09101025 0.042943068 -0.07846198 -0.08069813 -0.07178613 0.09473523 0.039273508
0.09438302 0.09891666 0.076766275 -0.056519676 -0.021857396 0.08311782 0.07922957 -0.023155227
0.06431384 -0.008593991 0.027071811 0.09314624 -0.06421405 0.02291125 0.0028966516 0.06906948
-0.08536251 0.0607794 0.014860868 -0.058471918 0.003272675 0.03401818 -0.0757998 0.017917931
-0.028500997 -0.08728546 0.030232973 -0.050520886 0.07108665 -0.08352836 -0.05524813 0.08438153
-0.02842363 -0.016561091 -0.089249305 -0.09482654 0.022387028 -0.0455387 0.07646992 0.012833104
0.029020883 0.03909678 0.06728556 0.03079968 0.099149786 0.098220445 -0.06756538 0.06938083

conv1.bias f4 [16]
00000000: 68e1 5cbc 20bc 883b e858 3abc 42f5 003d
00000010: ab33 983d f060 3b3c 553f a9bd 403b b73c
00000020: b8dc 81bc 525e 593d 3018 43bc 50ae c0bb
00000030: 2bda a6bd 592d b03d 1af7 403d e85e 56bc
-0.013481475 0.004172817 -0.011373736 0.031483896 0.0743173 0.011436686 -0.08264033 0.02236712
-0.015852317 0.053068466 -0.011907622 -0.0058801547 -0.08147081 0.086023994 0.047110654 -0.013084151

bn1.weight f4 [16]
00000000: 88e5 403e 00a1 613d 813e 043f 3efd 323f
00000010: 4cb9 dd3e 543d 203e 87c1 563f 0d2d 293f
00000020: 04ad 1b3e b0e0 6e3d 0594 7b3f 5ada 1b3f
00000030: c4f0 b43e 7a5d f93e 3846 933d 9c2d 453e
0.18837559 0.055085182 0.51657873 0.69917667 0.43305433 0.15648395 0.8388905 0.6608437
0.15202719 0.058319747 0.98272735 0.60880053 0.3533994 0.4870413 0.071911275 0.1925568

bn1.bias f4 [16]
00000000: 0000 0000 0000 0000 0000 0000 0000 0000
00000010: 0000 0000 0000 0000 0000 0000 0000 0000
00000020: 0000 0000 0000 0000 0000 0000 0000 0000
00000030: 0000 0000 0000 0000 0000 0000 0000 0000
0.0 0.0 0.0 0.0 0.0 0.0 0.0 0.0
0.0 0.0 0.0 0.0 0.0 0.0 0.0 0.0

bn1.running_mean f4 [16]
00000000: 0000 0000 0000 0000 0000 0000 0000 0000
00000010: 0000 0000 0000 0000 0000 0000 0000 0000
00000020: 0000 0000 0000 0000 0000 0000 0000 0000
00000030: 0000 0000 0000 0000 0000 0000 0000 0000
0.0 0.0 0.0 0.0 0.0 0.0 0.0 0.0
0.0 0.0 0.0 0.0 0.0 0.0 0.0 0.0

bn1.running_var f4 [16]
00000000: 0000 803f 0000 803f 0000 803f 0000 803f
00000010: 0000 803f 0000 803f 0000 803f 0000 803f
00000020: 0000 803f 0000 803f 0000 803f 0000 803f
00000030: 0000 803f 0000 803f 0000 803f 0000 803f
1.0 1.0 1.0 1.0 1.0 1.0 1.0 1.0
1.0 1.0 1.0 1.0 1.0 1.0 1.0 1.0

conv2.weight f4 [32, 16, 5, 5]
00000000: fb53 463d 2b44 3ebd 6db6 e3bc fe80 bf3c
00000010: aa6d 9b3c 4550 2e3d e2df d63c 088b 55bc
00000020: cd12 3bbd 9a1d debc b1ad 093d 4053 bdbb
00000030: a0c8 8fbc e7dd 063d f23a c63c 91b3 293d
00000040: e066 88bc 4075 473c 5b33 31bd d06f d1bb
00000050: aab2 cdbc 88ba 06bc 4780 30bd 5e22 ff3c
00000060: 0aad a03c dd74 323d b030 2fbb 1c83 7e3c
00000070: 7b5b 0ebd 70d7 ddbb 72c6 da3c 29f1 163d
00000080: dd53 e0bc 401e a9bb 9efd e33c 544a 07bc
00000090: 101f b4bc 804f 24bc bf74 213d 0669 11bd
000000a0: 6117 333d d8f4 e2bb 34c0 253c ddca a6bc
000000b0: fc3c 7c3c 60c4 2dbb 9265 bb3c 50f5 d0bb
000000c0: 7513 233d 921c fa3c 40ff dd3b b478 773c
000000d0: 8729 a4bc 179e 1d3d 58d9 df3b 6762 f6bc
000000e0: f0ff d9bc d42e 6a3c 7a64 09bd 6826 213c
000000f0: 9a3f 933c 8532 3f3d 5325 003d 79d2 143d
00000100: 310a 0c3d fb64 143d 33e0 1c3d 2016 00bb
00000110: 9aee 88bc ce25 b73c 3086 4cbb ff7d 2ebd
00000120: 0d8a 48bd a3af 093d 0048 1f38 a82d d43b
00000130: d8aa 4abd 3011 14bb 4e24 d53c fb3e 293d
00000140: 6078 9f3a 5523 11bd 0201 863c a657 993c
00000150: 9d23 b3bc 52aa ff3c e443 673c b6d8 e83c
00000160: 5608 08bd daad 2abd 410d 243d 141a 7fbc
00000170: 1246 993c ecf8 8dbc 3f73 4abd 8026 77bc
00000180: 5aa5 9cbc 514e 1f3d f29b 20bd 1fd5 363d
00000190: 498b 193d 807c 26bc 68fe dcbb d08f 513b
000001a0: 68da 233c e080 27bb 6de0 2a3d de40 04bd
000001b0: 78e0 26bc b365 bcbc a86d 8abb fdf8 a7bc
000001c0: a013 84ba 489e 7abc 366b eb3c 2f2e 33bd
000001d0: ad57 c7bc ab39 1ebd c471 653c c0a7 6abc
000001e0: d99c 293d 82f4 913c 92c2 21bd 162e 0fbd
000001f0: d2b6 16bd 7a9e c8bc a0c3 d3bc 4cfc 313c
00000200: 2aa2 a8bc 8c68 2d3c cba4 39bd 691d 4a3d
00000210: 389b 323c b208 c23c c072 d7bc 6e08 9c3c
00000220: 0c99 54bc c101 1e3d 6629 8c3c 5059 37bb
00000230: fc7b 653c 80bb c5bb a354 dcbc d12b 123d
00000240: ba5c e03c b0ff 613b 08de 03bd 7584 24bd
00000250: 609b 8ebc f28e 35bd 585b 453c 5f35 2b3d
00000260: ce20 d43c 989b 79bc b1c3 103d 20d1 4fbb
00000270: 19ee 423d f960 423d d796 39bd 6bfa 243d
00000280: dd0d d5bc 4c84 113c ea84 29bd 6064 5d3b
00000290: dd5f 26bd 308e 373b 08ac 00bc 463d 28bd
000002a0: af4e 45bd 1db3 a4bc aa0e 86bc 43b4 aebc
000002b0: 408e 18bd 2045 c7bc b51d 093d 9e23 873c
000002c0: 0807 0bbc accd 03bd f181 403d 938e 45bd
000002d0: d774 c1bc 90b3 96bc 0632 ef3c ad29 3dbd
000002e0: 008d 49b9 3a04 e9bc 2a8b af3c 7ec0 943c
000002f0: c0d3 993a 5e1c 21bd e89d c4bb 106f dcbb
00000300: e3ac b5bc 70ab c1bb c056 4ebc 81cd 0d3d
00000310: 4d6f 2e3d 4096 d9bc b442 6abc 1587 25bd
00000320: f762 41bd 5ada d0bc b956 063d d25a 8c3c
00000330: ba9b debc 8177 153d 16e7 a33c 2d4c 263d
00000340: 2713 e4bc 4077 25bd ea2a d9bc 80d6 343c
00000350: 49d2 233d 02a6 cc3c 86e7 c73c d94a 1a3d
00000360: ada0 b7bc f6c9 933c 2e43 ed3c 72ce 27bd
00000370: f90a 163d 32ac 30bd a96a 3a3d 7400 0d3c
00000380: f4d1 1bbc 5a67 a63c dd1c 423d 0062 613a
00000390: 872e 073d ac69 98bc 0b2e 303d f54f 4b3d
000003a0: 2e6b eb3c 68e7 09bc 8b80 4c3d 7512 25bd
000003b0: 2ac7 00bd 0038 62b9 b2d7 ec3c d0e6 ae3b
000003c0: 636e c4bc 1fd8 283d eda1 b5bc 5fd8 37bd
000003d0: 5705 3d3d 7af3 82bc d0a6 29bb 07b7 f9bc
000003e0: 2011 07bc a6cd ed3c e09e 3fbb 0369 aabc
000003f0: 80ca da39 e0b7 f4bc 4e9f 07bd 1431 39bc
0.048419934 -0.04645173 -0.027796948 0.023376938 0.01897319 0.04255702 0.026229803 -0.013033636
-0.045672227 -0.027113724 0.03361291 -0.0057777464 -0.01755172 0.032926466 0.02419803 0.041431013
-0.016650617 0.012173951 -0.043261867 -0.006391503 -0.025109608 -0.008223183 -0.043091085 0.031144317
0.019613761 0.04356848 -0.00267319 0.015534189 -0.03475521 -0.006770067 0.026705954 0.036851082
-0.02738374 -0.005161077 0.027830895 -0.008257467 -0.021987468 -0.01002872 0.03941798 -0.03550055
0.043723468 -0.0069261603 0.010116626 -0.020360405 0.015395399 -0.0026514754 0.022875581 -0.0063769
0.039813478 0.030531202 0.006774813 0.015104461 -0.020039333 0.038480844 0.0068313293 -0.030076219
-0.026611298 0.014293391 -0.033543088 0.009835817 0.017974664 0.04667904 0.031285595 0.036333535
0.034189407 0.036229115 0.03829975 -0.0019544438 -0.016715337 0.022356894 -0.0031207912 -0.042600628
-0.04895978 0.033614766 3.797561e-05 0.006475169 -0.049479336 -0.0022593252 0.026018288 0.04131983
0.0012166612 -0.035434086 0.016357902 0.018718552 -0.021867568 0.031209145 0.0141153075 0.028423648
-0.033211075 -0.041669704 0.040051702 -0.015570182 0.01871017 -0.01733061 -0.049426313 -0.015084863
-0.019121815 0.038893048 -0.03921122 0.044636842 0.03748635 -0.010161519 -0.006744195 0.0031976588
0.010000803 -0.0025558993 0.041717935 -0.032288425 -0.010185353 -0.022997713 -0.004224498 -0.020504469
-0.001007665 -0.015296526 0.028737646 -0.043745216 -0.0243338 -0.038629215 0.014004175 -0.014322221
0.041409347 0.017816786 -0.039492197 -0.03495606 -0.036795445 -0.02448963 -0.025850117 0.010863375
-0.020585138 0.010584008 -0.045323174 0.049344454 0.010901265 0.023685787 -0.026299834 0.019046988
-0.012975942 0.03857589 0.017109584 -0.0027976818 0.014006611 -0.0060343146 -0.026895827 0.035686318
0.027387965 0.0034484677 -0.032194167 -0.040165383 -0.017408073 -0.044325776 0.012045704 0.041798946
0.025894549 -0.01523485 0.035342876 -0.0031710342 0.04759035 0.04745576 -0.045309868 0.04027788
-0.026007587 0.00888164 -0.041386522 0.0033781752 -0.040618766 0.0028008334 -0.007853515 -0.04107406
-0.04817074 -0.02010494 -0.016364414 -0.02132619 -0.037245035 -0.024324954 0.033475596 0.016496476
-0.008485563 -0.032178566 0.04699892 -0.048231672 -0.023615284 -0.018396169 0.029198658 -0.046182323
-0.0001922138 -0.028444398 0.021428663 0.018158194 0.001173608 -0.039333694 -0.006000269 -0.006727107
-0.022177165 -0.0059103295 -0.012593925 0.034619812 0.042586613 -0.026560903 -0.01429813 -0.040412027
-0.04721352 -0.025494743 0.03279755 0.01713315 -0.027173866 0.03649092 0.020007651 0.04059999
-0.027841164 -0.04039693 -0.02650972 0.011037469 0.039995465 0.024981502 0.024402391 0.037669037
-0.022415483 0.018040638 0.028962698 -0.040968366 0.036631558 -0.04313297 0.045511875 0.008606065
-0.009510506 0.020312954 0.047390807 0.0008597672 0.033003356 -0.018605076 0.04301266 0.0496368
0.02873763 -0.008416988 0.049927276 -0.040300805 -0.031439938 -0.00021573901 0.028911445 0.0053375736
-0.023978418 0.041221734 -0.022171939 -0.044884082 0.04614767 -0.01598524 -0.0025886782 -0.030482782
-0.008243829 0.029028725 -0.0029238984 -0.020802027 0.00041731074 -0.029872835 -0.03311091 -0.011303205

conv2.bias f4 [32]
00000000: 6641 bf3c 2171 253d 889f 7bbc db6c 44bd
00000010: f1a3 203d d0d9 d8bb 7ad2 eb3c bc86 4e3c
00000020: 906f aabc d892 c43b 8bc5 1e3d c22f 8b3c
00000030: e76e 153d 6995 443d f92a 393d 0cf8 04bd
00000040: 0c2e 6a3c b6ad 8abc 0009 2cbc 41ab 3b3d
00000050: 502b b8bc 86fa f83c ba92 aa3c 457f 4c3d
00000060: c042 5f3a b428 02bc 5469 1f3c fabe adbc
00000070: 38b6 62bc 0011 28bd 888a 13bc fd23 063d
0.023346614 0.04039109 -0.015357859 -0.047955375 0.039218847 -0.006617762 0.028786886 0.012605365
-0.02080515 0.0059989505 0.03876261 0.016990546 0.036482718 0.04799405 0.045206998 -0.03246312
0.014293205 -0.016928535 -0.010500193 0.045817617 -0.02248159 0.030392896 0.020821918 0.04992606
0.00085167214 -0.007944275 0.009729702 -0.021209229 -0.01383739 -0.041031837 -0.009005196 0.032749165

bn2.weight f4 [32]
00000000: 566e 6c3f 74a2 143e d3ed 4f3f 1ba6 2c3f
00000010: 3ad0 e13e 0430 643f 3c73 003f 9c9b 423e
00000020: 9033 323e 38da b83d 71d2 793f cd96 0d3f
00000030: a63c 823e e447 f03e d64a bc3e 4087 723d
00000040: 4266 d53e e0ba b93e deb8 8d3e a132 0a3f
00000050: 638d 253f 6f88 463f e8bc de3e 2cb5 ee3e
00000060: 0050 e53b da57 063f bb1c 6c3f c001 d33e
00000070: d0f5 963e ff0f 173f ebc6 6a3f 005f fd3b
0.9235586 0.14515096 0.81222266 0.67440957 0.44104177 0.89135766 0.50175834 0.19004673
0.17402482 0.09025997 0.97586733 0.5530823 0.25436896 0.46929848 0.36775845 0.059211016
0.4167958 0.36275387 0.27680105 0.53983504 0.64668864 0.7755193 0.435035 0.46622598
0.006998062 0.524778 0.9223134 0.41212273 0.29484415 0.59008783 0.91709775 0.007732272

bn2.bias f4 [32]
00000000: 0000 0000 0000 0000 0000 0000 0000 0000
00000010: 0000 0000 0000 0000 0000 0000 0000 0000
00000020: 0000 0000 0000 0000 0000 0000 0000 0000
00000030: 0000 0000 0000 0000 0000 0000 0000 0000
00000040: 0000 0000 0000 0000 0000 0000 0000 0000
00000050: 0000 0000 0000 0000 0000 0000 0000 0000
00000060: 0000 0000 0000 0000 0000 0000 0000 0000
00000070: 0000 0000 0000 0000 0000 0000 0000 0000
0.0 0.0 0.0 0.0 0.0 0.0 0.0 0.0
0.0 0.0 0.0 0.0 0.0 0.0 0.0 0.0
0.0 0.0 0.0 0.0 0.0 0.0 0.0 0.0
0.0 0.0 0.0 0.0 0.0 0.0 0.0 0.0

bn2.running_mean f4 [32]
00000000: 0000 0000 0000 0000 0000 0000 0000 0000
00000010: 0000 0000 0000 0000 0000 0000 0000 0000
00000020: 0000 0000 0000 0000 0000 0000 0000 0000
00000030: 0000 0000 0000 0000 0000 0000 0000 0000
00000040: 0000 0000 0000 0000 0000 0000 0000 0000
00000050: 0000 0000 0000 0000 0000 0000 0000 0000
00000060: 0000 0000 0000 0000 0000 0000 0000 0000
00000070: 0000 0000 0000 0000 0000 0000 0000 0000
0.0 0.0 0.0 0.0 0.0 0.0 0.0 0.0
0.0 0.0 0.0 0.0 0.0 0.0 0.0 0.0
0.0 0.0 0.0 0.0 0.0 0.0 0.0 0.0
0.0 0.0 0.0 0.0 0.0 0.0 0.0 0.0

bn2.running_var f4 [32]
00000000: 0000 803f 0000 803f 0000 803f 0000 803f
00000010: 0000 803f 0000 803f 0000 803f 0000 803f
00000020: 0000 803f 0000 803f 0000 803f 0000 803f
00000030: 0000 803f 0000 803f 0000 803f 0000 803f
00000040: 0000 803f 0000 803f 0000 803f 0000 803f
00000050: 0000 803f 0000 803f 0000 803f 0000 803f
00000060: 0000 803f 0000 803f 0000 803f 0000 803f
00000070: 0000 803f 0000 803f 0000 803f 0000 803f
1.0 1.0 1.0 1.0 1.0 1.0 1.0 1.0
1.0 1.0 1.0 1.0 1.0 1.0 1.0 1.0
1.0 1.0 1.0 1.0 1.0 1.0 1.0 1.0
1.0 1.0 1.0 1.0 1.0 1.0 1.0 1.0

conv3.weight f4 [32, 32, 5, 5]
00000000: a8df 72bc cdf2 a5bc d21f fb3c 6071 dc3c
00000010: a404 a8bb 9733 04bd bc79 35bc 2228 7cbc
00000020: 7cbc afbc 92c2 10bd b6b0 fc3c e1d2 0d3d
00000030: c0a7 f63a 0076 d3ba 89d3 0fbd 2bdb 0a3d
00000040: b87b 7abc be70 cabc 9853 593c dc6f b13c
00000050: b097 ac3b 7c0c 49bc c5c5 0c3d bc37 973c
00000060: e812 433c 48a6 a33b 426e d73c 40e3 a83a
00000070: c2a2 e03c 20ba afbc 133e 08bd c080 ecba
00000080: 26a1 ea3c f390 06bd 5847 44bc e564 08bd
00000090: 9c53 163c 184e 8f3b acaf 08bc e4c4 ab3c
000000a0: 54e8 2a3c ea13 f03c eac2 afbc 40c7 64bb
000000b0: ea77 0abd 8042 77bb a013 143c 4dd8 0a3d
000000c0: e422 2f3c 3a64 89bc 1bf6 fcbc 34c0 3fbc
000000d0: 24b3 263c 25d0 083d 7457 d2bb e0b0 983b
000000e0: 48ba 293c e0d6 dd3b 5d2a 0a3d 4ad6 f73c
000000f0: 0248 a7bc e8e5 d7bc 10b9 5cbc fe5b c9bc
00000100: 145d 1f3c 6041 ccba d083 01bc 7a9e 05bd
00000110: c14d 103d 4104 0abd 6ec6 e3bc b015 573b
00000120: 3acb ba3c e8bf 23bc 4067 ddbc d210 a03c
00000130: e24d c8bc 1012 323b be11 f73c be71 f83c
00000140: 0185 a7bc 5c18 b1bb a8c1 853b f098 923c
00000150: f0c2 873c b2b8 dcbc e02a 55bb 9cea 5bbc
00000160: 30aa 87bb 47de a4bc 3ce6 08bd 5c60 fbbc
00000170: 2c0d 6e3c bae9 f33c e589 cdbc 0cda 1f3c
00000180: a11b efbc fe80 0dbd 4bdb 89bc 03ac 003d
00000190: 115e 0b3d 477d d4bc 4c83 cc3c 6cc8 dfbc
000001a0: 49b3 bbbc 287a 92bb 8c89 a4bc f0a0 30bc
000001b0: 50ad 23bc ae65 ff3c 7cf4 b0bb 2009 2e3b
000001c0: a053 20bc 66d7 dabc fc01 663c b026 c93c
000001d0: f843 bd3c a0ec fabb 00e8 cabb ac53 773c
000001e0: ee57 f63c 40cf a73b c0cf 77bc 1a0d 4bbc
000001f0: c43b b1bc 703e 063b 42a3 9d3c 8238 cb3c
00000200: 4b4a 93bc a4dd 6cbc 9e51 09bc b32c 0dbd
00000210: 968d debc 30ea bd3b 5848 603c 32db f53c
00000220: 32fa 3cbc 4a9b 853c b8de 983b f20c 0ebc
00000230: f2a6 9d3c e495 8b3c c4ff a93c 887b cd3c
00000240: b7be a3bc dc0b 123c a04c f6ba 70a9 78bb
00000250: 4a35 fb3c 5691 8f3c 60cd abbb 609d 5cbb
00000260: 4497 77bc 8d6b 093d b0ff 5b3b 806f a2b9
00000270: 5d3f c5bc 5664 bdbc c06e 043a ea77 07bd
00000280: 826d 9b3c 42a9 f5bc 845a 663c 810f ecbc
00000290: c66a edbc b046 853b 7c70 733c 90d7 aa3c
000002a0: 89dc 06bd 80c7 c8ba ca7c fd3c b88f 27bc
000002b0: 38b1 823c 0407 8b3c 39ea abbc 803b f639
000002c0: f816 2f3c 76d1 9b3c 7619 ab3c 602c efba
000002d0: fa04 fa3c 4431 babc 2074 363c 40a5 dc3c
000002e0: bed4 c93c 286e aebb 2e03 e93c f8c9 b7bb
000002f0: 80da 9b3b 3eec bf3c 58b1 89bb d4d3 88bc
00000300: a06c 083c 706e df3b f0c1 93bc 683b 4cbc
00000310: 202f de3c beb3 853c 8dc2 0c3d 5837 bb3c
00000320: dec8 69bc 00b7 7f3a 40de 0b3a 9093 513b
00000330: 5c27 52bc feed 42bc b670 01bd b4c8 8ebc
00000340: 90a4 54bb a0ce 433c e320 c7bc 8009 48bb
00000350: a08b 43bb a46f c03c e666 39bc 1321 fbbc
00000360: c0f8 373b 388b 6fbc 1099 813c ff6d 88bc
00000370: ca79 e53c 647d 5fbc 6408 6e3c d03b 47bb
00000380: 5f5f 0a3d bff6 02bd 579e e2bc ab70 043d
00000390: 0055 a839 7654 9dbc ed9c 0cbd c2bb ccbc
000003a0: 83a7 063d 1284 bfbc 562a cc3c 72b4 f33c
000003b0: a020 103b 2230 cfbc c0cf 9c3a 48b0 913c
000003c0: 0088 7c3c 1aeb 9a3c 0275 79bc 9e53 d4bc
000003d0: 8ebe e13c ea5f bdbc 6caf 43bc 6a4a 4cbc
000003e0: 74bc c03c 287d dabc a051 063c 30d8 383c
000003f0: 0039 283b 34a6 07bd f8f5 773c 5be6 fcbc
-0.014823832 -0.020257378 0.030654822 0.02690953 -0.0051275063 -0.032275762 -0.011076387 -0.015390428
-0.021452181 -0.035341807 0.030845981 0.034624938 0.0018818304 -0.0016133189 -0.035113845 0.03390042
-0.015288286 -0.024711963 0.013264559 0.021659784 0.005267106 -0.012271043 0.034368295 0.018459193
0.011906363 0.0049941875 0.026297692 0.0012885109 0.027421359 -0.021451056 -0.033262324 -0.0018043742
0.028641295 -0.032853078 -0.0119799 -0.033299346 0.0091752075 0.004373323 -0.008342665 0.020967908
0.010431368 0.02930637 -0.021455247 -0.0034908801 -0.033805765 -0.0037728846 0.009037882 0.033897687
0.010689471 -0.016771425 -0.030879071 -0.01170354 0.010174546 0.033401627 -0.0064191166 0.004659757
0.010359354 0.00677 0.033731807 0.030253548 -0.020420078 -0.026354745 -0.013471857 -0.024579998
0.009726781 -0.0015583448 -0.007904962 -0.03262184 0.035230402 -0.033695463 -0.02780458 0.0032819323
0.022801984 -0.0099944845 -0.027026772 0.01953927 -0.0244512 0.002717141 0.030159827 0.030327674
-0.020449163 -0.005404515 0.0040819235 0.017895192 0.016572446 -0.026943538 -0.0032526776 -0.013422634
-0.004140161 -0.020125521 -0.033422694 -0.030685596 0.014529508 0.029774535 -0.025090167 0.009756576
-0.02918798 -0.034546845 -0.0168282 0.031414043 0.034025256 -0.025938643 0.024964951 -0.027317248
-0.022912638 -0.0044701286 -0.020085119 -0.010780558 -0.009990051 0.031176414 -0.0054002386 0.0026555732
-0.009785563 -0.026714038 0.014038559 0.02455458 0.0231037 -0.0076576024 -0.0061922073 0.0150956325
0.030071225 0.0051211417 -0.015125215 -0.01239326 -0.021634944 0.0020483993 0.019242886 0.024807218
-0.017979762 -0.01445714 -0.008381275 -0.034466457 -0.027167123 0.0057957396 0.013689123 0.030011747
-0.011534261 0.0163094 0.004665222 -0.008670079 0.019244645 0.017039247 0.020751841 0.025083318
-0.0199884 0.00891396 -0.0018791147 -0.003794279 0.030665059 0.017525356 -0.0052429885 -0.0033663139
-0.015111748 0.033549834 0.003356915 -0.00030982122 -0.024078066 -0.023119133 0.00050519034 -0.033073343
0.018973116 -0.029987935 0.014059667 -0.028815987 -0.028981578 0.0040672645 0.014858361 0.020854741
-0.032925162 -0.0015318245 0.030943293 -0.010227136 0.015953645 0.016971119 -0.02098571 0.00046965107
0.0106866285 0.019020777 0.020886164 -0.0018247478 0.030519951 -0.02272857 0.011136085 0.026934266
0.024637576 -0.0053231902 0.028443899 -0.0056087933 0.004756272 0.023428079 -0.004202049 -0.01670257
0.0083266795 0.006818585 -0.018036813 -0.012465335 0.02712208 0.01632106 0.034365226 0.022853538
-0.014269082 0.0009754747 0.0005335547 0.0031978823 -0.012826767 -0.011897562 -0.03160163 -0.017429687
-0.003244672 0.011951119 -0.024307674 -0.003052324 -0.0029837862 0.023490734 -0.011316037 -0.03065542
0.002807185 -0.014620595 0.015820056 -0.016654013 0.028012175 -0.013640735 0.014528368 -0.0030400641
0.03378236 -0.031973597 -0.027663393 0.03233401 0.00032106787 -0.019205313 -0.034329344 -0.024991874
0.032874595 -0.023378406 0.024922531 0.029749129 0.0021992102 -0.025291506 0.001196377 0.017784253
0.015413284 0.018910933 -0.015225651 -0.025918778 0.027556684 -0.023117024 -0.011943679 -0.012468914
0.023527361 -0.026671007 0.008198172 0.011282012 0.002566874 -0.033117488 0.015134327 -0.03087156

conv3.bias f4 [32]
00000000: acf3 66bc f033 1cbb 9a55 35bc 5c4c f2bb
00000010: f6ab 13bc 90b0 99bc 9ae0 b7bc bc98 9abc
00000020: 0eb3 be3c 34ff 273c d48c fcbc 90cc d4bb
00000030: a53f 073d 62a4 c23c 6632 bcbc 36f7 ed3c
00000040: 4033 1fba f4b0 8c3c 5007 8c3c 40e7 9d3b
00000050: 5ea9 fa3c 0c4d f0bc 2b22 c6bc 10f3 943c
00000060: 18b3 0d3c e690 eabc 237d c8bc 3f5a 003d
00000070: 31fe 01bd c8a6 a63b 9d64 edbc d8c7 c7bc
-0.014096182 -0.0023834668 -0.011067772 -0.0073943567 -0.009013167 -0.01876095 -0.022445966 -0.018871658
0.02327874 0.010253716 -0.03082887 -0.0064941123 0.03301968 0.023760024 -0.02297325 0.029048543
-0.00060730055 0.017174222 0.01709333 0.004818827 0.030598339 -0.029333614 -0.024186214 0.018182307
0.008648656 -0.028633546 -0.024473732 0.031336065 -0.031736556 0.0050858 -0.02897864 -0.024387285

bn3.weight f4 [32]
00000000: 0e96 e53e 4e7a c63e d843 6a3e 3b20 503f
00000010: c43f bb3e c80d cb3d bf31 7b3f 4aca 3b3f
00000020: 0a0f bf3e 0859 783e 1002 1a3d f0b8 d63d
00000030: 1d00 6e3f e839 a13e 0a71 a43e a84d 383f
00000040: 2540 623f e8eb 823e 4887 ec3d d5ac 093f
00000050: 1477 8e3e 8056 4b3d ca0f 283f 2470 a03e
00000060: 3187 3f3f c74d 683f d443 963e 48c0 b53e
00000070: a215 753f af3d 2e3f c42f 993e a02f d03d
0.44841045 0.38765186 0.22877443 0.8129918 0.36572087 0.09914738 0.9812278 0.73355544
0.3731616 0.24252713 0.037599623 0.10484493 0.9296892 0.3148949 0.32117492 0.71993494
0.88379127 0.25570607 0.1154924 0.53779346 0.27825224 0.04964304 0.6564909 0.31335557
0.7481566 0.9074368 0.29348624 0.3549826 0.95736134 0.6806287 0.29919255 0.10165334

bn3.bias f4 [32]
00000000: 0000 0000 0000 0000 0000 0000 0000 0000
00000010: 0000 0000 0000 0000 0000 0000 0000 0000
00000020: 0000 0000 0000 0000 0000 0000 0000 0000
00000030: 0000 0000 0000 0000 0000 0000 0000 0000
00000040: 0000 0000 0000 0000 0000 0000 0000 0000
00000050: 0000 0000 0000 0000 0000 0000 0000 0000
00000060: 0000 0000 0000 0000 0000 0000 0000 0000
00000070: 0000 0000 0000 0000 0000 0000 0000 0000
0.0 0.0 0.0 0.0 0.0 0.0 0.0 0.0
0.0 0.0 0.0 0.0 0.0 0.0 0.0 0.0
0.0 0.0 0.0 0.0 0.0 0.0 0.0 0.0
0.0 0.0 0.0 0.0 0.0 0.0 0.0 0.0

bn3.running_mean f4 [32]
00000000: 0000 0000 0000 0000 0000 0000 0000 0000
00000010: 0000 0000 0000 0000 0000 0000 0000 0000
00000020: 0000 0000 0000 0000 0000 0000 0000 0000
00000030: 0000 0000 0000 0000 0000 0000 0000 0000
00000040: 0000 0000 0000 0000 0000 0000 0000 0000
00000050: 0000 0000 0000 0000 0000 0000 0000 0000
00000060: 0000 0000 0000 0000 0000 0000 0000 0000
00000070: 0000 0000 0000 0000 0000 0000 0000 0000
0.0 0.0 0.0 0.0 0.0 0.0 0.0 0.0
0.0 0.0 0.0 0.0 0.0 0.0 0.0 0.0
0.0 0.0 0.0 0.0 0.0 0.0 0.0 0.0
0.0 0.0 0.0 0.0 0.0 0.0 0.0 0.0

bn3.running_var f4 [32]
00000000: 0000 803f 0000 803f 0000 803f 0000 803f
00000010: 0000 803f 0000 803f 0000 803f 0000 803f
00000020: 0000 803f 0000 803f 0000 803f 0000 803f
00000030: 0000 803f 0000 803f 0000 803f 0000 803f
00000040: 0000 803f 0000 803f 0000 803f 0000 803f
00000050: 0000 803f 0000 803f 0000 803f 0000 803f
00000060: 0000 803f 0000 803f 0000 803f 0000 803f
00000070: 0000 803f 0000 803f 0000 803f 0000 803f
1.0 1.0 1.0 1.0 1.0 1.0 1.0 1.0
1.0 1.0 1.0 1.0 1.0 1.0 1.0 1.0
1.0 1.0 1.0 1.0 1.0 1.0 1.0 1.0
1.0 1.0 1.0 1.0 1.0 1.0 1.0 1.0

head.weight f4 [6, 1568]
00000000: d2f9 a93c 5e1e 89bc 3014 da3b fc62 5b3c
00000010: 70e8 fe3b f087 d7ba 1837 afbb b4d6 513c
00000020: 04b6 9c3c 4031 8fbb b97b cebc 289d ed3b
00000030: 9945 66bc 2646 cabc 4071 0e3a b6c0 cc3c
00000040: f0d5 563c 86d2 9e3c 28f2 a83b 086a 1e3b
00000050: 606d 913a cc96 7d3c b4d9 8d3c 74d4 543c
00000060: 4046 aebc 38b0 dbbb 382e 46bb 4834 b3bb
00000070: 0fee 63bc 30f5 953b 46ef 69bc 1032 e13b
00000080: c69a 27bc 08ae b2bb dc12 7bbc 547c 493c
00000090: e961 4cbc 53cc c1bc a0fb 9d3c d4e5 c03c
000000a0: fa95 bbbc 36e9 983c dc23 ce3c 746b 80bc
000000b0: 1cff 68bc 92e5 9abc 98e2 113c 5c54 693c
000000c0: c604 ae3c 88d1 11bc f041 cdbc d01d 443c
000000d0: f619 b73c fcb5 97bc 1372 4cbc 4c41 e8bb
000000e0: e559 b7bc 39da 4bbc 767b 803c 6470 e2bb
000000f0: 324f b6bc 6490 a33c 6491 053c a93c 23bc
00000100: a08b 25bc 601f 8b3c 6ec4 bb3c b8ec 7fbb
00000110: 7437 2cbc dd8c babc 8e5e b53c 64d3 dfbb
00000120: 3a4c c2bc 00fa 43b9 0c26 c3bb bd4b cdbc
00000130: 3861 04bb f0cc 843b 7850 093c 6413 b73c
00000140: 1190 acbc ae5e a33c 8254 a8bc 0ca5 053c
00000150: defc 00bc d178 5fbc 543c 42bc 0803 443b
00000160: c48f 043c 67c2 29bc c0b5 f23b ae92 82bc
00000170: b37d bfbc 8c01 a53b 2429 7cbc b771 9cbc
00000180: d11e 25bc b116 2fbc 0057 af3c 3932 98bc
00000190: f8cc b13b b587 acbc 0002 7839 ec8a acbb
000001a0: 28d3 cabb 5c00 80bb a08e 4bbb 40ec c03b
000001b0: 0879 c6bc 6857 b23b a87a e8bb 0a7e 61bc
000001c0: f811 8c3c c03e 413b cf48 59bc 6c1b bdbc
000001d0: 4d67 cebc 24b5 12bc f437 27bc 8067 453c
000001e0: 6259 13bc 8822 c6bb 0e14 bb3c 583c 373c
000001f0: eae5 9a3c 5d2f c1bc 23a8 c6bc 9210 c73c
00000200: 5a29 11bc 0ac2 bebc 0001 4c3b 3a69 91bc
00000210: 763c a2bc 059c a5bc f87b 31bc 0088 41bb
00000220: c99f aabc 88b1 9f3c 8860 83bb 94d7 a53c
00000230: 6c7a 273c 64db 9c3c a6bd bb3c 7cab 063c
00000240: 9ed2 cd3c 1e5b c7bc 8092 64b9 c4d8 8d3c
00000250: 6047 19bb 7088 703c f8f7 bf3b d6bd 80bc
00000260: 388f 91bb 400e a7bc d8ca 2e3c f4a5 b63c
00000270: f0a2 deba 0ab7 af3c 687b 2ebc d3c4 a8bc
00000280: 82d2 80bc ecf3 b93b 520e 9c3c 132e 48bc
00000290: f4a5 a93c c68d 85bc d074 91bc 2cf0 8d3b
000002a0: 0832 9a3c a085 653c ace8 19bc 3cee 403c
000002b0: 4821 ab3b 5014 e1ba fe9f c3bc 3c95 323c
000002c0: e08a d03b ba05 15bc df3b 3ebc de80 c73c
000002d0: 945b 5bbc 8453 05bc c0eb 003b 957e b3bc
000002e0: a070 a3bc 0545 4dbc 64e3 b43b 1c9a 85bc
000002f0: 01d4 b3bc 142a a83c a0b1 113a 46a2 88bc
00000300: d056 913c 00c0 cb3c e200 903c 8055 a8b9
00000310: 68cc 293c a09d c43c 7027 b93c d54e 40bc
00000320: c445 bc3c 1a15 04bc d7f0 cabc fca1 02bc
00000330: 9588 b6bc d6e3 61bc ac4b c8bc b413 523c
00000340: 4433 0cbc a4a9 763c e4df 433c d061 733b
00000350: d218 b03c da08 8ebc 3e88 89bc 0086 383a
00000360: d403 963b 704a 403b f2cf b8bc ceec 91bc
00000370: 148f a9bc 2676 a03c 6a52 943c 319c 43bc
00000380: 1af8 a83c f8fc 5a3c 809a 43ba 263a b93c
00000390: 5c9d 7dbc b042 633c caa6 883c 599e bfbc
000003a0: 166c 933c f65d bdbc 0813 f13b 6aa0 903c
000003b0: 6cb3 cebb 203c 283c b0e3 de3b 0ea3 ca3c
000003c0: 40a7 a13c cdc0 94bc 68ed f53b e35e 5cbc
000003d0: d091 363c c044 afbb 9009 4b3c 6421 963c
000003e0: c813 8d3c 58ec 3fbb 54a9 863c 58f2 01bb
000003f0: e61e 22bc 3482 1bbc a744 6cbc 1425 053c
0.020749006 -0.016738113 0.0066552386 0.013390299 0.0077791736 -0.0016443711 -0.005347144 0.012807537
0.01912976 -0.0043698847 -0.02520548 0.0072514005 -0.014054679 -0.024691653 0.00054337457 0.024994235
0.01311253 0.019387495 0.0051558204 0.0024172086 0.0011095218 0.015477847 0.017315723 0.012990106
-0.021273732 -0.0067043565 -0.003023995 -0.005468879 -0.013911738 0.004576348 -0.014278239 0.006872423
-0.010229772 -0.005452875 -0.015324321 0.012297709 -0.0124745155 -0.023657 0.019285023 0.02354709
-0.022898663 0.018665891 0.025163583 -0.015676238 -0.014220979 -0.018908296 0.008904122 0.014241304
0.02124251 -0.008900054 -0.025055856 0.0119699985 0.022351246 -0.018519394 -0.012478369 -0.007087862
-0.022381732 -0.012442165 0.01568387 -0.0069103707 -0.02225456 0.019966312 0.00815234 -0.009963193
-0.01010409 0.016982734 0.022920813 -0.0039051007 -0.010511268 -0.022772247 0.022139814 -0.0068306196
-0.023717988 -0.00018689781 -0.0059554633 -0.025060529 -0.0020199548 0.0040527508 0.008381002 0.022348113
-0.02106479 0.019942608 -0.020548109 0.008157026 -0.007872788 -0.013639645 -0.011855204 0.0029909033
0.008090917 -0.010361291 0.00740692 -0.015939083 -0.023375368 0.005035585 -0.015390668 -0.019097192
-0.010078148 -0.010686562 0.02140379 -0.018578636 0.0054260455 -0.021060804 0.00023651868 -0.005265584
-0.0061897226 -0.003906293 -0.0031060353 0.005887538 -0.024227634 0.0054425485 -0.0070947 -0.01376296
0.017098412 0.0029486865 -0.013261988 -0.023084365 -0.025195742 -0.00895432 -0.010206211 0.012048602
-0.0089934785 -0.006046597 0.022836711 0.011183821 0.01890846 -0.023582155 -0.024250096 0.024299894
-0.008859957 -0.023285884 0.0031128526 -0.017750371 -0.01980422 -0.020215997 -0.010832779 -0.0029530525
-0.020828145 0.019493833 -0.00400931 0.020244397 0.010222059 0.019147582 0.02291758 0.008219596
0.025124844 -0.02433544 -0.0002179835 0.017315276 -0.002338849 0.014680967 0.0058584176 -0.01571552
-0.004442122 -0.020392537 0.010668479 0.02229593 -0.0016985815 0.021449585 -0.0106495395 -0.020601666
-0.015725378 0.0056748297 0.019049797 -0.012218016 0.020709015 -0.016302954 -0.017755896 0.0043316092
0.018822685 0.014008909 -0.009393852 0.0117755495 0.0052224733 -0.0017172191 -0.023880001 0.010899838
0.0063642114 -0.009095604 -0.011610954 0.02435344 -0.013388533 -0.008137587 0.0019671768 -0.021910945
-0.019951165 -0.012528663 0.005520271 -0.016308837 -0.021951677 0.020527877 0.0005557779 -0.01667894
0.01774159 0.024871826 0.017578546 -0.0003210716 0.010363676 0.024000943 0.022601813 -0.011737545
0.022982486 -0.008061672 -0.024773045 -0.00797319 -0.022281924 -0.0137872305 -0.024450146 0.01282208
-0.008557145 0.015055094 0.011955235 0.0037137158 0.02149621 -0.017338205 -0.016788598 0.00070390105
0.004578093 0.0029341243 -0.022560094 -0.017813113 -0.020698108 0.019587588 0.018105704 -0.011939094
0.020626117 0.0133659765 -0.0007461682 0.022610735 -0.015479412 0.01387088 0.016681094 -0.023390936
0.017995875 -0.023116093 0.007357005 0.017654616 -0.00630801 0.010268241 0.006802045 0.024735954
0.019733071 -0.01815834 0.0075051077 -0.013450357 0.011143163 -0.005348772 0.012392417 0.018326469
0.017221346 -0.002928516 0.016438164 -0.0019828286 -0.009895062 -0.009491492 -0.014420665 0.008126516

head.bias f4 [6]
00000000: c88a 243c f240 af3c 404e b3ba 26d6 ac3c
00000010: 18d9 b03b 5624 1abc
0.010042854 0.021393273 -0.0013679937 0.021098208 0.0053969733 -0.009408077

square_avg f4 [16, 4, 5, 5]
00000000: fc93 7933 59f8 2f34 c6ab a433 f1dd df33
00000010: f44f 8333 676a 3433 5f50 bb33 e567 3634
00000020: 14e7 0d34 307d 1134 bdbb 9933 0c42 7b34
00000030: 7e26 fa33 ed6c da33 5fc9 5d33 da01 3534
00000040: fea4 3534 b9dc 4a34 da02 ab34 e53c 5934
00000050: b967 5e34 4d8a 5134 a3ed a434 7851 3834
00000060: 4137 a534 fc93 7933 59f8 2f34 c6ab a433
00000070: f1dd df33 f44f 8333 676a 3433 5f50 bb33
00000080: e567 3634 14e7 0d34 307d 1134 c7bb 9933
00000090: 0c42 7b34 7e26 fa33 ed6c da33 5fc9 5d33
000000a0: da01 3534 fea4 3534 b9dc 4a34 da02 ab34
000000b0: e53c 5934 b967 5e34 4d8a 5134 a3ed a434
000000c0: 7851 3834 4137 a534 351a 7833 4946 2d34
000000d0: bed9 a433 9296 df33 fdf6 8233 278d 3533
000000e0: cf0e bb33 69cf 3634 5386 0e34 482c 1234
000000f0: 2e8a 7f33 645e 6834 3cbc dc33 de84 ca33
00000100: d59c 5a33 9a5d 1a34 71bc 2134 9aa1 3e34
00000110: ef00 a934 69d8 5734 de63 1934 e5fb 1534
00000120: f507 8034 369f 1934 3fcf 8c34 c527 7833
00000130: 8852 2d34 9bd8 a433 ed44 df33 eff1 8233
00000140: 067f 3533 8d1d ba33 3dd8 3634 7589 0e34
00000150: 272a 1234 19d7 7e33 3db5 6734 52fa dc33
00000160: fdb3 c733 e28b 5a33 50a2 1934 84b5 2034
00000170: 389c 3e34 4136 a834 87e3 5734 f861 1934
00000180: 8d6d 1634 b20a 8034 5572 1734 99cd 8c34
00000190: d808 9332 c6bb 6533 f21f 7632 53eb af32
000001a0: 1057 8432 fd4b 6132 be92 ed32 4488 0e32
000001b0: bea7 5631 5d3f 4031 0de4 b032 26d2 0732
000001c0: c9df 6832 9423 5532 c1f1 5a32 aee3 9032
000001d0: 7c44 5f32 085f 0a32 9db1 ba32 df91 be31
000001e0: c304 7a32 dbfc ed31 3491 0732 e77b b132
000001f0: cd99 0233 d808 9332 c6bb 6533 fa1f 7632
00000200: 56eb af32 1057 8432 fd4b 6132 be92 ed32
00000210: 4488 0e32 bea7 5631 5d3f 4031 0de4 b032
00000220: 26d2 0732 c9df 6832 9423 5532 c1f1 5a32
00000230: aee3 9032 7c44 5f32 085f 0a32 9db1 ba32
00000240: df91 be31 c304 7a32 dffc ed31 3091 0732
00000250: e37b b132 cd99 0233 5c27 9632 1b72 6c33
00000260: 9866 7d32 f1d2 ae32 06e7 8032 600b 6432
00000270: 3972 ef32 e3bc 1032 2e50 5831 e690 3831
00000280: 6fc5 9f32 f885 2932 6902 4932 9828 3632
00000290: 5cd4 4e32 f804 4a32 75f1 5932 1872 c931
000002a0: d8a0 af32 045b c931 1bea 3432 bd1e 2432
000002b0: c94c 0b32 2537 ab32 c308 e332 608e 9832
000002c0: 73be 6d33 b349 8232 45a2 b032 c669 8132
000002d0: 1145 6832 b870 ee32 ac0e 1332 cf08 5431
000002e0: 2ca2 3831 cde5 a032 1bf1 2a32 5d0f 4b32
000002f0: 4f66 3732 edfb 4d32 67da 4a32 a3a5 5832
00000300: 0ba2 ca31 f706 ae32 7644 c731 c113 3332
00000310: 3c58 1e32 9411 0832 446a a832 f660 e132
00000320: 2b01 0134 f9d7 8b33 8d54 1834 c3da b534
00000330: c834 e833 32b0 a333 3fdd 1834 caa1 a233
00000340: f0a1 f133 dde3 ef32 fcdd a733 7da4 e432
00000350: c96a a633 5073 0433 676c 1933 557d 4c33
00000360: 2242 5534 c469 3b33 0567 7132 096b 9932
00000370: c967 7d32 e6fb a734 04a4 c833 6cd9 1234
00000380: f6d6 0234 2b01 0134 f9d7 8b33 8d54 1834
00000390: c3da b534 c834 e833 32b0 a333 3fdd 1834
000003a0: caa1 a233 eea1 f133 dbe3 ef32 fcdd a733
000003b0: 7da4 e432 c96a a633 5073 0433 676c 1933
000003c0: 5a7d 4c33 2242 5534 c469 3b33 0567 7132
000003d0: 096b 9932 c967 7d32 e6fb a734 08a4 c833
000003e0: 6cd9 1234 f6d6 0234 5924 fa33 e6d2 8133
000003f0: a9a1 1534 155e b334 10a6 da33 cc2d 9e33
5.810942e-08 1.6388493e-07 7.6680905e-08 1.04246176e-07 6.114706e-08 4.200629e-08 8.7224855e-08 1.6987867e-07
1.3215714e-07 1.354972e-07 7.158767e-08 2.3400224e-07 1.1648534e-07 1.01712295e-07 5.1638718e-08 1.6857612e-07
1.6916962e-07 1.8893014e-07 3.1853307e-07 2.0231853e-07 2.0713095e-07 1.9514955e-07 3.0720284e-07 1.7165974e-07
3.0773847e-07 5.810942e-08 1.6388493e-07 7.6680905e-08 1.04246176e-07 6.114706e-08 4.200629e-08 8.7224855e-08
1.6987867e-07 1.3215714e-07 1.354972e-07 7.158774e-08 2.3400224e-07 1.1648534e-07 1.01712295e-07 5.1638718e-08
1.6857612e-07 1.6916962e-07 1.8893014e-07 3.1853307e-07 2.0231853e-07 2.0713095e-07 1.9514955e-07 3.0720284e-07
1.7165974e-07 3.0773847e-07 5.7765835e-08 1.613745e-07 7.676452e-08 1.0411635e-07 6.0985236e-08 4.2270724e-08
8.71056e-08 1.7025526e-07 1.3273647e-07 1.3613419e-07 5.9497488e-08 2.1641023e-07 1.0278788e-07 9.4305264e-08
5.0899718e-08 1.437642e-07 1.5062848e-07 1.7753919e-07 3.1479382e-07 2.0102165e-07 1.4285567e-07 1.3968345e-07
2.3847647e-07 1.4307156e-07 2.6227823e-07 5.777817e-08 1.6141905e-07 7.6762454e-08 1.0396784e-07 6.097604e-08
4.2257874e-08 8.666675e-08 1.7028738e-07 1.3274787e-07 1.3612645e-07 5.9334614e-08 2.1579486e-07 1.0290081e-07
9.299399e-08 5.0884303e-08 1.4308284e-07 1.4967196e-07 1.7751961e-07 3.1331913e-07 2.010621e-07 1.4284876e-07
1.4009693e-07 2.384964e-07 1.4104565e-07 2.6226624e-07 1.7117074e-08 5.3488996e-08 1.4326348e-08 2.0479694e-08
1.5406414e-08 1.3114001e-08 2.7657162e-08 8.296471e-09 3.123645e-09 2.7975695e-09 2.0592802e-08 7.9058164e-09
1.355506e-08 1.2406321e-08 1.27442386e-08 1.6867343e-08 1.299588e-08 8.054265e-09 2.1734019e-08 5.5463114e-09
1.4552998e-08 6.926354e-09 7.89105e-09 2.0661856e-08 3.0407865e-08 1.7117074e-08 5.3488996e-08 1.4326355e-08
2.04797e-08 1.5406414e-08 1.3114001e-08 2.7657162e-08 8.296471e-09 3.123645e-09 2.7975695e-09 2.0592802e-08
7.9058164e-09 1.355506e-08 1.2406321e-08 1.27442386e-08 1.6867343e-08 1.299588e-08 8.054265e-09 2.1734019e-08
5.5463114e-09 1.4552998e-08 6.926356e-09 7.891046e-09 2.066185e-08 3.0407865e-08 1.7480197e-08 5.505181e-08
1.4749865e-08 2.0352191e-08 1.5006218e-08 1.3273933e-08 2.7875204e-08 8.424851e-09 3.1477714e-09 2.685789e-09
1.8599819e-08 9.867556e-09 1.1700288e-08 1.0603024e-08 1.2039063e-08 1.1759077e-08 1.2685963e-08 5.862841e-09
2.0445825e-08 5.860217e-09 1.0530608e-08 9.5530455e-09 8.108324e-09 1.9932097e-08 2.6430262e-08 1.7759874e-08
5.5354075e-08 1.5167506e-08 2.0562888e-08 1.5065677e-08 1.3519881e-08 2.7758105e-08 8.559862e-09 3.0855067e-09
2.6867708e-09 1.8730953e-08 9.950123e-09 1.1819648e-08 1.0675264e-08 1.1989852e-08 1.18076064e-08 1.2610516e-08
5.897396e-09 2.0259433e-08 5.7994454e-09 1.0423663e-08 9.216873e-09 7.920239e-09 1.9606098e-08 2.623754e-08
1.2014486e-07 6.511977e-08 1.4186863e-07 3.3873047e-07 1.0812943e-07 7.622329e-08 1.4236592e-07 7.573142e-08
1.1251893e-07 2.7926882e-08 7.816922e-08 2.6617494e-08 7.7494015e-08 3.083852e-08 3.572168e-08 4.761144e-08
1.986123e-07 4.3635524e-08 1.405147e-08 1.7860218e-08 1.4750136e-08 3.1289454e-07 9.34306e-08 1.3676407e-07
1.2185396e-07 1.2014486e-07 6.511977e-08 1.4186863e-07 3.3873047e-07 1.0812943e-07 7.622329e-08 1.4236592e-07
7.573142e-08 1.1251892e-07 2.7926879e-08 7.816922e-08 2.6617494e-08 7.7494015e-08 3.083852e-08 3.572168e-08
4.7611458e-08 1.986123e-07 4.3635524e-08 1.405147e-08 1.7860218e-08 1.4750136e-08 3.1289454e-07 9.343063e-08
1.3676407e-07 1.2185396e-07 1.1648144e-07 6.045393e-08 1.3935518e-07 3.3409802e-07 1.0181623e-07 7.365779e-08

square_avg f4 [16]
00000000: 7d77 1724 4c8a 2f24 1a8a f725 7958 9025
00000010: 6c93 f221 9f89 6422 804e d125 221a ac24
00000020: fcb4 9a23 08c5 d11f 3463 ac26 45b8 3122
00000030: a79a c523 b0f5 7023 e99b 1a22 e86e ff20
3.2844116e-17 3.8064218e-17 4.294125e-16 2.503997e-16 1.643758e-18 3.0972618e-18 3.6308914e-16 7.463738e-17
1.6773363e-17 8.8840904e-20 1.1961787e-15 2.4085525e-18 2.142428e-17 1.30624524e-17 2.095343e-18 4.3272072e-19

square_avg f4 [16]
00000000: 83e0 be37 cef7 2837 35be d235 c6dd 8b36
00000010: 5d68 ab35 abd0 8633 9069 2e36 2372 8b36
00000020: 3936 2537 d684 8f36 a47a 1b35 05d2 3c36
00000030: 3860 4f36 2f69 1f36 9cc5 f636 aef9 3834
2.2754311e-05 1.0071277e-05 1.5701577e-06 4.1683406e-06 1.2770867e-06 6.277818e-08 2.5989466e-06 4.15581e-06
9.847391e-06 4.2771962e-06 5.7920465e-07 2.813643e-06 3.090141e-06 2.3754071e-06 7.354376e-06 1.7227168e-07

square_avg f4 [16]
00000000: 35eb 1137 aded 5936 13ed 5a35 cd16 8436
00000010: c26c 3a34 21d7 b633 cf1b ec35 2734 cf34
00000020: 8dfc 8536 4750 2735 e98a 8e35 7ffa 4936
00000030: bd6e 5436 494e eb35 b44f c734 4ea2 de33
8.697437e-06 3.2473865e-06 8.1556317e-07 3.936561e-06 1.7362166e-07 8.514167e-08 1.7591464e-06 3.85947e-07
3.9931097e-06 6.2329167e-07 1.0620253e-06 3.0097142e-06 3.165492e-06 1.7531648e-06 3.712463e-07 1.03672036e-07

square_avg f4 [32, 16, 5, 5]
00000000: 47fa a132 e6b5 1234 b319 3c34 9a58 3333
00000010: f5a1 7231 b141 3331 edf4 0b31 3ae9 8f32
00000020: 1f47 e731 c730 b731 8dfa 9c32 12da 6732
00000030: dabe 5833 6047 9331 ad87 6233 fe1f 2333
00000040: 074a d732 db9e 9532 11d4 2233 2357 9033
00000050: 202a b633 023e da32 9c91 8432 f635 4232
00000060: 73d0 8931 e187 e334 ee3c d934 609f 1834
00000070: 3744 0334 7002 4b34 3911 8134 4e7a e433
00000080: b68e 4b34 0115 2f34 1b60 0b34 2a5b a333
00000090: 29b4 b333 e7b8 c533 862c 7d33 4975 4733
000000a0: dc8f 0233 24ec b733 01bf 8733 d794 1033
000000b0: dc94 9833 9b13 c132 6496 7a32 ae0f a631
000000c0: 8e58 a331 b018 db33 18a7 ec34 235d e635
000000d0: 8786 f634 2e27 6833 6d84 8e33 b659 0231
000000e0: 2d6e b533 9fee 4534 86f4 0134 ce7c da32
000000f0: f50d 3a34 7bdc 2235 4d35 ac34 8544 9c34
00000100: e046 3734 a851 9732 a16d 0735 fa12 6835
00000110: 8c4b be34 9b0a d933 6fac b334 95da 7534
00000120: 406b b033 5fad a733 0db0 1833 e05b 7833
00000130: b9d2 4933 a9fa 3834 3e51 8c32 04df 8732
00000140: ae0f 1b34 4ea5 b532 fb81 9f32 f579 4131
00000150: 7bc2 ba33 99d0 aa32 d8da 8e33 9c15 1f34
00000160: bf12 5734 f552 1333 e256 c032 c699 c632
00000170: fb46 d432 dbab 5334 b57f 0a33 6210 2733
00000180: f737 0133 2cd5 0733 afd2 e632 f196 9633
00000190: 5aff 4735 89f7 d131 c11e 1535 b427 d831
000001a0: 5fee 0e35 efd9 4231 1306 7b31 78c2 1b34
000001b0: 8164 fa32 d890 3b32 fc4a 3c34 f55f 1a31
000001c0: d7a5 1033 ee9e 1231 cdf7 9033 7f08 8334
000001d0: c822 8032 7fe8 3731 3e61 da31 1b53 1933
000001e0: eec3 8432 3904 a631 e5af 3b32 74c1 8833
000001f0: 91c2 8731 3ad5 0133 3921 1632 34f9 a030
00000200: e1a5 ea31 a429 6931 3d8f 4331 d63d 1432
00000210: 1185 8932 7b84 c72f fcf1 3330 8576 9630
00000220: ada1 5530 f8f6 e931 cf8f f130 8079 1331
00000230: c006 7d31 5e2c 5a30 2c9b 7031 0e83 932d
00000240: 3578 da31 f1c0 e930 eeea 4c30 49d1 0a31
00000250: 5d48 8e31 d4d1 a231 406b 1d33 5864 6735
00000260: 41aa b433 4faf 1033 facf 8d34 6a77 0234
00000270: 5ee6 2b34 266e 9133 05e5 0b35 7a7b a332
00000280: 6394 2834 caa8 d333 4274 3f34 d41e b234
00000290: e490 7b33 17fe 2434 5e46 5b34 de2d 2235
000002a0: 8455 9134 5cf0 5333 17cd 0134 ec63 1e34
000002b0: 55bd 5234 bf49 9634 12b8 2b33 4120 b736
000002c0: b0c4 8d35 390e 2436 2d61 ff35 c019 ed35
000002d0: 1a01 3436 fa6d f335 0d17 d935 fe3f fe34
000002e0: 3870 5b35 d08c 0b35 2537 3d35 b899 9a35
000002f0: 2c4f 5134 1e07 d834 a473 b434 62fd 9e32
00000300: 7e43 6633 bb5b d735 daba 9d34 f0d9 5233
00000310: 3f7d 3b33 6325 5334 6802 2435 62e4 d134
00000320: ec8c e631 e8bd d531 b9e0 f730 f884 df30
00000330: e257 2131 fb04 6231 7c84 9d31 ab95 8d31
00000340: 082d 0a31 f1a1 fa30 2ae3 1431 a279 9430
00000350: 252a 9b31 f704 a230 ace8 0d31 df08 1531
00000360: 7887 7631 763f 0132 d203 ac30 5536 8931
00000370: 6115 6831 502f e131 4844 e931 bcef b931
00000380: 0450 a431 fe32 0632 dc0e 0c31 b56b eb31
00000390: ab32 2731 f3c1 4031 d206 2c32 c5fd ea31
000003a0: 471d fd30 d01e 7530 92a3 5f31 18ca 3131
000003b0: f518 1231 392b 9231 a445 0831 8359 4530
000003c0: aafb e82f f299 ff2f 7544 cf31 af2b 0b32
000003d0: 89ca fc2f 7789 5f2f 8b02 9630 dd31 0131
000003e0: 60b3 e030 4fac 0630 248c 9a33 d7b2 7934
000003f0: 5f7b 1835 aff2 ea33 98a4 3934 b647 1b36
1.885668e-08 1.3663484e-07 1.7518214e-07 4.1757268e-08 3.5307697e-09 2.608527e-09 2.0366386e-09 1.675345e-08
6.7310704e-09 5.3315463e-09 1.8274728e-08 1.3495553e-08 5.0464998e-08 4.2863775e-09 5.2743122e-08 3.798049e-08
2.5062958e-08 1.7418122e-08 3.7911438e-08 6.7213726e-08 8.482698e-08 2.5406738e-08 1.5433038e-08 1.13045555e-08
4.0109227e-09 4.238091e-07 4.0463732e-07 1.4214083e-07 1.2225142e-07 1.8906735e-07 2.4040654e-07 1.06393244e-07
1.8957766e-07 1.6305786e-07 1.2980347e-07 7.6068616e-08 8.368108e-08 9.207161e-08 5.8946647e-08 4.643997e-08
3.0398823e-08 8.564555e-08 6.321171e-08 3.366298e-08 7.105129e-08 2.2477073e-08 1.458611e-08 4.8330184e-09
4.753992e-09 1.0202473e-07 4.4080002e-07 1.7163442e-06 4.5918952e-07 5.4052343e-08 6.6364784e-08 1.8968485e-09
8.44851e-08 1.8433865e-07 1.2103018e-07 2.5435295e-08 1.7327677e-07 6.0670544e-07 3.2076278e-07 2.910712e-07
1.7068987e-07 1.7615847e-08 5.045095e-07 8.645435e-07 3.5445225e-07 1.0106779e-07 3.346681e-07 2.2896923e-07
8.215147e-08 7.8080795e-08 3.5550375e-08 5.782556e-08 4.699061e-08 1.7227525e-07 1.633509e-08 1.5817484e-08
1.4441204e-07 2.1146345e-08 1.8569144e-08 2.815452e-09 8.696676e-08 1.9885464e-08 6.652198e-08 1.481589e-07
2.0030255e-07 3.4301554e-08 2.2391252e-08 2.3120162e-08 2.4712326e-08 1.9713427e-07 3.2246778e-08 3.8897618e-08
3.0086053e-08 3.1626016e-08 2.6871332e-08 7.0123754e-08 7.450486e-07 6.110842e-09 5.555158e-07 6.290941e-09
5.3246e-07 2.8354596e-09 3.652876e-09 1.4506247e-07 2.9149534e-08 1.0917766e-08 1.7536144e-07 2.2464495e-09
3.3678443e-08 2.1336137e-09 6.750597e-08 2.4406833e-07 1.4916978e-08 2.6762164e-09 6.35569e-09 3.5698672e-08
1.5455921e-08 4.831716e-09 1.0924826e-08 6.3681824e-08 3.9511368e-09 3.022908e-08 8.738703e-09 1.171236e-09
6.8291546e-09 3.3929632e-09 2.8457656e-09 8.628794e-09 1.600941e-08 3.6292022e-10 6.54637e-10 1.0947622e-09
7.7718704e-10 6.8092696e-09 1.7575931e-09 2.146038e-09 3.6820182e-09 7.937099e-10 3.5012802e-09 1.6770165e-11
6.358301e-09 1.7007818e-09 7.4548623e-10 2.0200608e-09 4.1409707e-09 4.7386752e-09 3.6651954e-08 8.6200225e-07
8.412872e-08 3.3687055e-08 2.641462e-07 1.2150636e-07 1.6009423e-07 6.7721246e-08 5.21148e-07 1.9031848e-08
1.5700202e-07 9.856156e-08 1.7830556e-07 3.3177514e-07 5.857227e-08 1.5366128e-07 2.0421564e-07 6.041645e-07
2.7070575e-07 4.934587e-08 1.2088672e-07 1.4751248e-07 1.9626653e-07 2.7993335e-07 3.998145e-08 5.45758e-06
1.0562562e-06 2.4446183e-06 1.9027262e-06 1.766537e-06 2.6822731e-06 1.8136918e-06 1.6174469e-06 4.7357747e-07
8.174716e-07 5.1986444e-07 7.048823e-07 1.1518632e-06 1.9493444e-07 4.0238314e-07 3.3611752e-07 1.8508846e-08
5.3612432e-08 1.6045445e-06 2.937948e-07 4.9092648e-08 4.365324e-08 1.9664508e-07 6.109826e-07 3.9095454e-07
6.709902e-09 6.2207057e-09 1.8035485e-09 1.6263177e-09 2.347854e-09 3.289016e-09 4.584363e-09 4.1206554e-09
2.010724e-09 1.823592e-09 2.1665962e-09 1.0802987e-09 4.515885e-09 1.1788462e-09 2.065046e-09 2.1687396e-09
3.5874717e-09 7.523218e-09 1.2515733e-09 3.9934016e-09 3.3772596e-09 6.5537407e-09 6.788955e-09 5.4114633e-09
4.782125e-09 7.811421e-09 2.0381128e-09 6.851645e-09 2.43305e-09 2.8049925e-09 1.0013268e-08 6.8391466e-09
1.8416494e-09 8.917427e-10 3.254375e-09 2.5871767e-09 2.1259983e-09 4.254073e-09 1.983019e-09 7.1795386e-10
4.2379372e-10 4.6493615e-10 6.0322756e-09 8.100797e-09 4.5982443e-10 2.0330569e-10 1.0914659e-09 1.8800315e-09
1.6349126e-09 4.899378e-10 7.196675e-08 2.3254994e-07 5.680394e-07 1.0940618e-07 1.7289346e-07 2.313854e-06

square_avg f4 [32]
00000000: 8ae6 9522 865b b51e 7bcf 8021 427a 0e20
00000010: b055 2e20 39ea 2b22 77f8 ee1f 19ed 3e1f
00000020: 1b0e fd1f 9a5f 911e d6fd fe21 1bd5 5922
00000030: 144b 2922 813d 8d21 b58f 2d20 f6eb 231e
00000040: cb3d d121 24a4 3820 8777 1b21 2283 9e22
00000050: 30db 1f22 4df8 da22 7143 8c21 f939 aa20
00000060: 11e9 fe1a 605c 3620 8627 9021 bac9 fb21
00000070: 4b95 851f 051e 2a21 e930 8922 d057 c718
4.0630624e-18 1.9201974e-20 8.728537e-19 1.206832e-19 1.4766725e-19 2.3298818e-18 1.0120797e-19 4.0430188e-20
1.07173003e-19 1.5392012e-20 1.7278899e-18 2.95218e-18 2.2943517e-18 9.570812e-19 1.4701219e-19 8.677944e-21
1.4178747e-18 1.5639716e-19 5.2674236e-19 4.296483e-18 2.1664555e-18 5.9351917e-18 9.504621e-19 2.8837483e-19
1.0542848e-22 1.5446564e-19 9.768281e-19 1.7061818e-18 5.6574675e-20 5.763797e-19 3.718571e-18 5.1528962e-24

square_avg f4 [32]
00000000: e567 e335 fc70 6e35 bd2c f934 07c3 cc36
00000010: 0002 1536 7102 2b36 8422 d736 bb86 2935
00000020: 25aa c736 8e21 8936 4541 df36 29c8 2137
00000030: d3bb cc36 a0bd fd35 5480 6035 b30e 8333
00000040: 279b 6a36 23d3 b936 3926 d335 2141 9a36
00000050: f954 a835 77b3 b035 877c 1337 bfa0 f935
00000060: 80b2 1635 2b52 3b34 aa80 1136 5f7f 3935
00000070: 819c 4536 e49d bf34 c3cf 8f36 91d0 2630
1.6943055e-06 8.8826323e-07 4.6412416e-07 6.102378e-06 2.2203894e-06 2.5482407e-06 6.4115175e-06 6.3153465e-07
5.9504696e-06 4.0868244e-06 6.6535163e-06 9.642951e-06 6.1015394e-06 1.8905157e-06 8.3633245e-07 6.1028366e-08
3.4959028e-06 5.538009e-06 1.5731849e-06 4.5971397e-06 1.2541706e-06 1.3165253e-06 8.790877e-06 1.8598729e-06
5.6139106e-07 1.7445625e-07 2.1681576e-06 6.910322e-07 2.9446385e-06 3.5691403e-07 4.2859187e-06 6.068684e-10
