dqn/net_weights.pth (torch_old, 202352 bytes, 20 tensors)

conv1.weight f4 [16, 4, 5, 5]
0.06624109 -0.054682113 -0.01561743 -0.07041609 -0.030384384 0.09997202 -0.084859125 -0.029689774
0.07890398 -0.0052938685 0.055702336 -0.042251434 -0.039699532 -0.010888778 -0.017252304 -0.061339594
0.09260852 0.054601155 -0.033911347 -0.025281563 -0.095316485 0.05083906 0.005339429 -0.0676319
0.0019239932 0.094923146 -0.04835836 -0.0051113144 -0.035855033 -0.0022742972 0.009990595 -0.0957756
0.023664095 0.08392059 -0.048237335 0.09823244 -0.0707819 0.026740871 -0.01201348 0.07480354
-0.05829798 -0.030116655 -0.077459015 0.08897338 0.009124614 -1.7628074e-05 0.031375818 0.057235815
-0.06984146 -0.06844375 0.070236884 -0.054313242 0.036003806 -0.07925676 -0.07025929 0.025676139
-0.08241304 -0.041903388 0.032588325 0.07694984 0.0023864731 -0.07805643 0.05407148 0.076469816
-0.07443248 0.07254524 0.02103497 -0.010544457 0.06798587 0.090009056 0.076729394 0.031369664
0.04242236 0.09212386 -0.07177581 0.09816558 -0.0035650358 0.083698906 -0.049093913 -0.066593945
-0.07884677 -0.02414374 0.030944072 0.059828587 0.00012669712 0.08610257 0.027798705 -0.045871984
0.032359548 0.04519225 0.042275317 0.04312604 -0.07750074 0.015149094 0.04902383 -0.08368417
-0.08741852 0.04011529 0.06464637 0.009397604 -0.049638152 -0.04895351 -0.009219229 -0.06859234
0.01429905 -0.03554734 0.09821396 0.08645191 0.00473962 -0.024093583 0.0050851107 0.03403861
-0.055764165 -0.044319965 -0.0056713223 -0.06500536 -0.0121783465 -0.09683301 -0.09702724 -0.053530004
0.040509768 -0.0702885 0.003800787 -0.012122311 -0.042117085 0.025441073 0.03761705 0.07919382
-0.008704878 0.07653577 -0.004196085 0.05026997 0.04958778 -0.030549027 -0.054457497 -0.053541746
0.06799673 0.0828043 0.02579809 -0.059541263 0.016831458 -0.0516719 0.08881781 0.07101042
0.06440889 -0.063073754 0.013456188 -0.05517769 0.05892267 -0.084367886 -0.04998392 0.068682514
0.03127364 0.07994186 0.085218094 0.022400633 -0.08602854 -0.054921355 -0.091005765 -0.047189843
-0.030943274 -0.055065252 -0.0064786077 0.029470406 -0.044979762 -0.032950222 -0.08678422 0.06141711
0.045744516 -0.06353934 0.08761125 -0.06628643 -0.022106625 0.073884584 0.06061914 0.041913994
0.05914981 -0.034370624 0.068864234 0.095504664 -0.0909098 0.023921788 -0.015872039 -0.006475523
0.047079273 0.091775276 0.078976564 0.081916295 -0.020679332 -0.07291176 0.004606828 -0.029461764
-0.051808108 0.059379227 0.043103464 0.02757173 -0.008419752 -0.029432848 0.07148542 -0.0726975
-0.067743346 0.02924373 -0.07117488 0.014426768 0.065142326 -0.05713656 -0.057123996 0.045951538
0.06490784 0.028871529 -0.03700564 -0.06244191 -0.0652249 0.07635886 -0.029379033 -0.050624944
-0.03230492 0.010314368 -0.07348488 0.03550782 -0.041772604 0.015668646 -0.08414135 -0.07079244
-0.057684805 0.033910222 0.023737513 0.014352083 0.08156643 -0.01857946 0.09924985 -0.09108509
-0.024756357 0.04152257 0.004898526 0.08215008 0.087284036 -0.043017056 -0.089976765 0.07495793
0.046158217 0.026122622 0.078873016 0.029764004 -0.001510784 -0.069912806 0.04061193 -0.060843732
0.08503131 0.0968642 0.07188179 0.037721746 -0.03122425 -0.071419634 -0.08466984 -0.08964324
00000000: 69a9 873d 5afa 5fbd 40e0 7fbc 5036 90bd
00000010: ace8 f8bc 21be cc3d 9fca adbd f837 f3bc
00000020: 6998 a13d 3078 adbb 2228 643d d70f 2dbd
00000030: fa9b 22bd d866 32bc b454 8dbc 3a3f 7bbd
00000040: 89a9 bd3d 76a5 5f3d a0e6 0abd 481b cfbc
00000050: 4a35 c3bd 9e3c 503d 60f6 ae3b 9882 8abd
00000060: 802e fc3a 1167 c23d 6a13 46bd d07c a7bb
00000070: badc 12bd 600c 15bb 98af 233c ff25 c4bd
00000080: 34db c13c 8fde ab3d 8394 45bd 172e c93d
00000090: 1af6 90bd ac0f db3c 30d4 44bc 9932 993d
000000a0: ddc9 6ebd 34b7 f6bc d5a2 9ebd ad37 b63d
000000b0: 687f 153c 00e0 93b7 ee83 003d 1a70 6a3d
000000c0: 0a09 8fbd 3d2c 8cbd 5bd8 8f3d 9077 5ebd
000000d0: ba78 133d 5e51 a2bd 1ae4 8fbd c456 d23c
000000e0: 2bc8 a8bd e3a2 2bbd 567b 053d e197 9d3d
000000f0: 6066 1c3b 0ddc 9fbd 0e7a 5d3d 359c 9c3d
00000100: 0e70 98bd 9992 943d 8851 ac3c a8c2 2cbc
00000110: 2d3c 8b3d ab56 b83d 4d24 9d3d 7a7d 003d
00000120: 12c3 2d3d 6fab bc3d 32ff 92bd 090b c93d
00000130: 60a3 69bb 556a ab3d b316 49bd 6862 88bd
00000140: 6a7a a1bd 18c9 c5bc 6c7e fd3c d20e 753d
00000150: 00da 0439 8b56 b03d 1cba e33c 43e4 3bbd
00000160: 728b 043d 821b 393d e228 2d3d eea4 303d
00000170: b5b8 9ebd e833 783c 36cd 483d 9b62 abbd
00000180: 7b08 b3bd ee4f 243d 5165 843d 68f8 193c
00000190: 6051 4bbd 7a83 48bd 400c 17bc 247a 8cbd
000001a0: 9046 6a3c 169a 11bd 6724 c93d b30d b13d
000001b0: d04e 9b3b e85f c5bc 00a1 a63b 126c 0b3d
000001c0: f768 64bd da88 35bd 80d6 b9bb 8821 85bd
000001d0: b087 47bc 6350 c6bd 38b6 c6bd 4742 5bbd
000001e0: 92ed 253d 6bf3 8fbd a016 793b a89c 46bc
000001f0: f782 2cbd cc69 d03c 5614 1a3d 5f30 a23d
00000200: e89e 0ebc c9be 9c3d 507f 89bb e2e7 4d3d
00000210: 8e1c 4b3d f441 fabc d30e 5fbd 974e 5bbd
00000220: df41 8b3d 4d95 a93d 8456 d33c 8ae1 73bd
00000230: 20e2 893c eaa5 53bd 1de6 b53d e96d 913d
00000240: cfe8 833d d02c 81bd 5877 5c3c 0002 62bd
00000250: e658 713d 12c9 acbd f0bb 4cbd 6ba9 8c3d
00000260: ca18 003d 8fb8 a33d d386 ae3d 8881 b73c
00000270: bb2f b0bd 37f5 60bd 3b61 babd 234a 41bd
00000280: c07c fdbc 1a8c 61bd 804a d4bb ec6b f13c
00000290: b33c 38bd d0f6 06bd edbb b1bd 8290 7b3d
000002a0: 9a5e 3b3d ea20 82bd 876d b33d 2ec1 87bd
000002b0: f418 b5bc cd50 973d c64b 783d 02ae 2b3d
000002c0: 1247 723d 36c8 0cbd b108 8d3d f397 c33d
000002d0: eb2e babd a0f7 c33c 1406 82bc a030 d4bb
000002e0: 32d6 403d adf4 bb3d 77be a13d bbc3 a73d
000002f0: b467 a9bc c352 95bd e0f4 963b cc59 f1bc
00000300: bd34 54bd a237 733d 428d 303d 1cde e13c
00000310: 00f3 09bc 281d f1bc f366 923d 6de2 94bd
00000320: 06bd 8abd 8c90 ef3c 23c4 91bd 405e 6c3c
00000330: 5769 853d 0708 6abd dafa 69bd ae37 3c3d
00000340: 67ee 843d fc83 ec3c 3a93 17bd 17c3 7fbd
00000350: a294 85bd 0962 9c3d 4cac f0bc 1a5c 4fbd
00000360: 2a52 04bd 98fd 283c 3e7f 96bd a670 113d
00000370: c019 2bbd 885b 803c 4d52 acbd a0fb 90bd
00000380: e746 6cbd 72e5 0a3d 2c75 c23c 0025 6b3c
00000390: 4d0c a73d f433 98bc 8143 cb3d d28a babd
000003a0: d8cd cabc 9213 2a3d d083 a03b 4d3e a83d
000003b0: f9c1 b23d a732 30bd bd45 b8bd 8b83 993d
000003c0: 6610 3d3d 1cff d53c 2d88 a13d a4d3 f33c
000003d0: 8005 c6ba 722e 8fbd b258 263d 4737 79bd
000003e0: e524 ae3d bd60 c63d c336 933d 1e82 1a3d
000003f0: 00ca ffbc 7544 92bd 6267 adbd e096 b7bd

conv1.bias f4 [16]
-0.006184712 -0.09046552 -0.0590891 0.0038464665 -0.05126555 0.09856159 0.021160223 -0.09296914
0.0019409433 -0.08622413 0.044352226 -0.024249174 0.0810095 -0.022317037 -0.012761354 -0.06898886
00000000: 20a9 cabb fd45 b9bd 6a07 72bd 0015 7c3b
00000010: d3fb 51bd a9da c93d 3458 ad3c 9b66 bebd
00000020: 4067 fe3a 4796 b0bd aeaa 353d 34a6 c6bc
00000030: 4fe8 a53d 38d2 b6bc 0015 51bc 084a 8dbd

bn1.weight f4 [16]
0.7376276 0.66154796 0.45305914 0.9733577 0.63584673 0.024116933 0.3830086 0.28579324
0.09690994 0.30080384 0.18726039 0.43905258 0.85038126 0.41277838 0.98950994 0.6092478
00000000: 2ad5 3c3f 355b 293f 5ef7 e73e f82d 793f
00000010: dac6 223f e090 c53c b419 c43e 7e53 923e
00000020: b878 c63d f602 9a3e 30c1 3f3e 80cb e03e
00000030: 96b2 593f b057 d33e 8650 7d3f aaf7 1b3f

bn1.bias f4 [16]
0.0 0.0 0.0 0.0 0.0 0.0 0.0 0.0
0.0 0.0 0.0 0.0 0.0 0.0 0.0 0.0
00000000: 0000 0000 0000 0000 0000 0000 0000 0000
00000010: 0000 0000 0000 0000 0000 0000 0000 0000
00000020: 0000 0000 0000 0000 0000 0000 0000 0000
00000030: 0000 0000 0000 0000 0000 0000 0000 0000

bn1.running_mean f4 [16]
0.0 0.0 0.0 0.0 0.0 0.0 0.0 0.0
0.0 0.0 0.0 0.0 0.0 0.0 0.0 0.0
00000000: 0000 0000 0000 0000 0000 0000 0000 0000
00000010: 0000 0000 0000 0000 0000 0000 0000 0000
00000020: 0000 0000 0000 0000 0000 0000 0000 0000
00000030: 0000 0000 0000 0000 0000 0000 0000 0000

bn1.running_var f4 [16]
1.0 1.0 1.0 1.0 1.0 1.0 1.0 1.0
1.0 1.0 1.0 1.0 1.0 1.0 1.0 1.0
00000000: 0000 803f 0000 803f 0000 803f 0000 803f
00000010: 0000 803f 0000 803f 0000 803f 0000 803f
00000020: 0000 803f 0000 803f 0000 803f 0000 803f
00000030: 0000 803f 0000 803f 0000 803f 0000 803f

conv2.weight f4 [32, 16, 5, 5]
0.03275815 0.02653892 -0.030039608 -0.017635614 -0.029489977 -0.025423521 0.04446351 -0.035208654
0.001924403 -0.0120773725 -0.009004541 -0.025289923 0.001487989 -0.018500865 0.002066154 -0.024790758
0.03044631 0.015747707 -0.01480164 -0.013340406 -0.006550532 0.00012812018 -0.009137072 -0.019292003
0.049837504 -0.027136732 0.0451559 4.5705587e-05 0.044736173 0.034551892 0.022374544 0.04255445
0.0115215 0.049278427 -0.044719767 -0.04902926 0.020819072 -0.014359929 -0.027396489 0.015194867
-0.03550428 0.042362038 -0.00912901 0.015356947 0.009424679 0.048389707 -0.026795417 -0.03982065
-0.048556514 -0.0025978014 0.04256742 -0.010653876 -0.043127056 0.008952331 -0.0028410368 -0.025518805
0.01981872 0.0028272085 0.04926608 0.012346208 -0.013791908 0.017184589 0.02261294 0.03722694
0.010650445 0.018709105 -0.0014242455 0.04497153 0.0108754635 0.017926503 -0.02160421 -0.011452071
0.025430072 0.04110984 -0.025066024 -0.015504859 0.03664029 0.0136856325 0.01748887 -0.038378637
0.04594106 -0.04067076 -0.017965727 -0.031413227 0.0006576106 -0.000428278 -0.013481401 0.013119016
-0.017923284 0.006731648 0.014971215 -0.028048282 -0.0483505 -0.049017098 -0.004496198 -0.0029555485
-0.004681535 -0.022042794 -0.010129459 -0.0033572316 -0.029823167 0.024100196 0.028091747 -0.03140755
-0.040967327 -0.048372623 -0.012932546 -0.008418828 0.01077687 0.04782859 0.02592637 -0.008004196
0.03870861 0.047261868 0.0022765696 -0.040544093 -0.018398196 0.029633861 0.008495074 -0.014459502
0.01924919 0.016645078 -0.038012564 5.6695193e-05 -0.0042000525 -0.029116005 0.0032487437 0.042388473
0.047735672 0.021770876 0.017390896 -0.035815597 -0.044026386 -0.021499598 -0.0047999136 0.026406933
-0.029560333 -0.03690985 0.004347671 0.005047746 -0.023840249 -0.004910432 0.034311775 0.03702909
-0.03164946 0.02201723 -0.0033305958 0.018007014 -0.021559114 0.001637619 -0.010538198 0.005198218
0.014423069 0.049298827 0.013830733 -0.002202075 0.035674836 0.02467991 -0.03126374 -0.021249652
-0.034829497 0.02506737 0.049021382 -0.009947795 0.03729253 0.008820765 0.0303883 -0.022570087
-0.0052865334 -0.047526814 0.023797471 0.0010880753 -0.0061218515 0.047734026 0.015458841 -0.0035265312
0.02069607 -0.02695253 -0.0021903627 0.01955704 0.028604712 0.0010943189 0.034090463 -0.019948548
-0.01762753 0.022280734 0.028285403 0.0025868006 -0.009663265 -0.019271553 -0.024221439 0.0031162314
-0.023577899 -0.034784548 -0.013877533 -0.0074067228 -0.047594517 0.011532079 -0.0038933083 0.002674155
-0.045431495 -0.04880743 -0.02820297 0.037490558 -0.0046950355 -0.020883901 0.04712442 -0.012958158
-0.021556789 -0.017576326 -0.0055465996 0.019296575 0.04369401 -0.016660802 0.03386909 -0.040100884
-0.02157116 0.008313559 0.002137404 -0.044384588 0.026068594 -0.007760994 -0.010385413 0.028170016
0.039788846 0.021165017 -0.012343604 0.011296414 0.023640808 0.04558089 -0.026549106 0.03659266
0.023319323 -0.040946674 0.013821635 0.0059099086 -0.033070043 -0.026355619 -0.028672392 0.0042533465
-0.02206223 -0.03247711 0.0040328093 0.049102213 -0.004631985 0.04343578 0.033630732 -0.01521308
-0.0007582195 -0.0074740835 0.012608919 0.03785238 0.018760238 0.047215465 -0.048100073 0.04596105
00000000: 692d 063d 2668 d93c a015 f6bc 9078 90bc
00000010: f794 f1bc fd44 d0bc 5f1f 363d f336 10bd
00000020: 403c fc3a 2ce0 45bc c887 13bc d02c cfbc
00000030: a008 c33a 208f 97bc 5068 073b fd15 cbbc
00000040: 8a6a f93c 5601 813c 9482 72bc b891 5abc
00000050: d8a5 d6bb 0058 0639 a8b3 15bc 430a 9ebc
00000060: 6922 4c3d da4d debc 65f5 383d 00b4 3f38
00000070: 473d 373d 4986 0d3d d24a b73c 934d 2e3d
00000080: acc4 3c3c 2dd8 493d 132c 37bd e8d2 48bd
00000090: c28c aa3c e845 6bbc 9a6e e0bc e4f3 783c
000000a0: f06c 11bd d183 2d3d d891 15bc b49b 7b3c
000000b0: f869 1a3c 4934 463d 1082 dbbc fa1a 23bd
000000c0: 32e3 46bd e03f 2abb 2d5b 2e3d 988d 2ebc
000000d0: ffa5 30bd ccac 123c b030 3abb d00c d1bc
000000e0: de5a a23c b048 393b 3bcb 493d c047 4a3c
000000f0: 74f7 61bc b2c6 8c3c c63e b93c 477b 183d
00000100: 347f 2e3c d643 993c c0ad baba 1134 383d
00000110: 002f 323c 9ada 923c 50fb b0bc 78a1 3bbc
00000120: ba52 d03c cb62 283d 4357 cdbc 1808 7ebc
00000130: 2114 163d b439 603c d244 8f3c eb32 1dbd
00000140: b12c 3c3d 6296 26bd dc2c 93bc 28ab 00bd
00000150: 8063 2c3a 808a e0b9 18e1 5cbc 24f1 563c
00000160: dad3 92bc 2895 dc3b d449 753c 83c5 e5bc
00000170: 2d0b 46bd 27c6 48bd d854 93bb e0b1 41bb
00000180: 9067 99bb 1793 b4bc 08f6 25bc 0005 5cbb
00000190: b74f f4bc c66d c53c aa20 e63c 34a5 00bd
000001a0: 5bcd 27bd 5f22 46bd 08e3 53bc 20ef 09bc
000001b0: 7891 303c e9e7 433d 8a63 d43c 0824 03bc
000001c0: eb8c 1e3d a995 413d 8032 153b 9011 26bd
000001d0: d0b7 96bc b6c2 f23c ec2e 0b3c 8ce7 6cbc
000001e0: 7ab0 9d3c 425b 883c 10b3 1bbd 00cc 6d38
000001f0: 98a0 89bb b084 eebc e0e8 543b 899f 2d3d
00000200: 7b86 433d d658 b23c 5a77 8e3c 60b3 12bd
00000210: 0355 34bd ed1f b0bc 9848 9dbb 5a53 d83c
00000220: 8328 f2bc c82e 17bd e876 8e3b 9067 a53b
00000230: a04c c3bc b0e7 a0bb 818a 0c3d d1ab 173d
00000240: dda2 01bd 7a5d b43c 2046 5abb 7283 933c
00000250: bd9c b0bc 60a5 d63a 68a8 2cbc d055 aa3b
00000260: bc4e 6c3c 91ed 493d 4c9a 623c b050 10bb
00000270: c71f 123d 862d ca3c 680e 00bd c013 aebc
00000280: 60a9 0ebd 165a cd3c a5ca 483d 14fc 22bc
00000290: 0dc0 183d f884 103c e2f0 f83c e7e4 b8bc
000002a0: a83a adbb 7aab 42bd eaf2 c23c c09d 8e3a
000002b0: d099 c8bb c184 433d 1447 7d3c 601d 67bb
000002c0: ce8a a93c 8dcb dcbc 308c 0fbb 1636 a03c
000002d0: 6e54 ea3c 406f 8f3a 71a2 0b3d 236b a3bc
000002e0: 9c67 90bc 1686 b63c cab6 e73c 5087 293b
000002f0: ac52 1ebc 60df 9dbc 0a6c c6bc b039 4c3b
00000300: 7026 c1bc 3e7a 0ebd 985e 63bc 18b4 f2bb
00000310: 78f2 42bd 0cf1 3c3c e026 7fbb e040 2f3b
00000320: 6016 3abd 4dea 47bd ea09 e7bc b38f 193d
00000330: d0d8 99bb b714 abbc 8905 413d 744e 54bc
00000340: dd97 b0bc 3afc 8fbc 40c0 b5bb da13 9e3c
00000350: 7df8 323d 3c7c 88bc 51ba 0a3d d340 24bd
00000360: 00b6 b0bc 9835 083c b013 0c3b 9dcc 35bd
00000370: ce8d d53c f04f febb 9427 2abc cec4 e63c
00000380: a1f9 223d 4262 ad3c d43c 4abc 9814 393c
00000390: 5eaa c13c 07b3 3a3d 837d d9bc 2fe2 153d
000003a0: 2a08 bf3c b3b7 27bd 2474 623c e8a7 c13b
000003b0: 7474 07bd bde7 d7bc 5de2 eabc a85f 8b3b
000003c0: dabb b4bc b806 05bd a825 843b 671f 493d
000003d0: e8c7 97bb b7e9 313d 61c0 093d 4840 79bc
000003e0: 40c3 46ba 28e9 f4bb a495 4e3c 190b 1b3d
000003f0: 12af 993c 0165 413d 9504 45bd a741 3c3d

conv2.bias f4 [32]
-0.045194447 -0.035087455 0.022577789 -0.012758989 0.029034894 0.0038212314 -0.004212506 -0.037838887
-0.0022829063 0.00094442815 0.041413907 -0.02024271 -0.02942772 -0.0350084 0.0076159462 -0.042009614
0.00777011 -0.0023327544 -0.00067485496 0.028486688 0.035425905 -0.018565197 -0.028204227 0.014501955
0.047383603 -0.04617246 0.011038531 0.03005578 -0.03932202 -0.024560804 0.019396361 -0.040629286
00000000: d01d 39bd ddb7 0fbd 0ef5 b83c 140b 51bc
00000010: 96da ed3c a06d 7a3b 1009 8abb f3fc 1abd
00000020: d09c 15bb 8093 773a a1a1 293d 0ad4 a5bc
00000030: 6712 f1bc f864 0fbd 308f f93b 4612 2cbd
00000040: 689c fe3b 20e1 18bb c0e8 30ba ea5c e93c
00000050: c11a 113d 0a16 98bc 8d0c e7bc 9c99 6d3c
00000060: 4f15 423d 551f 3dbd f4da 343c 8a37 f63c
00000070: 2010 21bd bd33 c9bc 1ee5 9e3c e56a 26bd

bn2.weight f4 [32]
0.8256245 0.53267825 0.95824665 0.5549523 0.38662857 0.6094897 0.94226736 0.79818636
0.48440105 0.22526956 0.44057482 0.5438631 0.80664456 0.61021334 0.9970546 0.27899247
0.7005191 0.37487626 0.5221659 0.35811216 0.91930246 0.54795736 0.05000925 0.38001877
0.16338563 0.97676843 0.027608871 0.17294532 0.6418868 0.026970625 0.18397963 0.3031782
00000000: 215c 533f 9a5d 083f a74f 753f 5b11 0e3f
00000010: 2ef4 c53e 8407 1c3f 6f38 713f f155 4c3f
00000020: 6a03 f83e 10ad 663e 0693 e13e 9d3a 0b3f
00000030: 4280 4e3f f136 1c3f f83e 7f3f 1ad8 8e3e
00000040: 3855 333f c8ef bf3e aaac 053f 7a5a b73e
00000050: 6857 6b3f ef46 0c3f 80d6 4c3d d291 c23e
00000060: 904e 273e 7f0d 7a3f 002c e23c 9418 313e
00000070: b152 243f 80f1 dc3c 2865 3c3e 2c3a 9b3e

bn2.bias f4 [32]
0.0 0.0 0.0 0.0 0.0 0.0 0.0 0.0
0.0 0.0 0.0 0.0 0.0 0.0 0.0 0.0
0.0 0.0 0.0 0.0 0.0 0.0 0.0 0.0
0.0 0.0 0.0 0.0 0.0 0.0 0.0 0.0
00000000: 0000 0000 0000 0000 0000 0000 0000 0000
00000010: 0000 0000 0000 0000 0000 0000 0000 0000
00000020: 0000 0000 0000 0000 0000 0000 0000 0000
00000030: 0000 0000 0000 0000 0000 0000 0000 0000
00000040: 0000 0000 0000 0000 0000 0000 0000 0000
00000050: 0000 0000 0000 0000 0000 0000 0000 0000
00000060: 0000 0000 0000 0000 0000 0000 0000 0000
00000070: 0000 0000 0000 0000 0000 0000 0000 0000

bn2.running_mean f4 [32]
0.0 0.0 0.0 0.0 0.0 0.0 0.0 0.0
0.0 0.0 0.0 0.0 0.0 0.0 0.0 0.0
0.0 0.0 0.0 0.0 0.0 0.0 0.0 0.0
0.0 0.0 0.0 0.0 0.0 0.0 0.0 0.0
00000000: 0000 0000 0000 0000 0000 0000 0000 0000
00000010: 0000 0000 0000 0000 0000 0000 0000 0000
00000020: 0000 0000 0000 0000 0000 0000 0000 0000
00000030: 0000 0000 0000 0000 0000 0000 0000 0000
00000040: 0000 0000 0000 0000 0000 0000 0000 0000
00000050: 0000 0000 0000 0000 0000 0000 0000 0000
00000060: 0000 0000 0000 0000 0000 0000 0000 0000
00000070: 0000 0000 0000 0000 0000 0000 0000 0000

bn2.running_var f4 [32]
1.0 1.0 1.0 1.0 1.0 1.0 1.0 1.0
1.0 1.0 1.0 1.0 1.0 1.0 1.0 1.0
1.0 1.0 1.0 1.0 1.0 1.0 1.0 1.0
1.0 1.0 1.0 1.0 1.0 1.0 1.0 1.0
00000000: 0000 803f 0000 803f 0000 803f 0000 803f
00000010: 0000 803f 0000 803f 0000 803f 0000 803f
00000020: 0000 803f 0000 803f 0000 803f 0000 803f
00000030: 0000 803f 0000 803f 0000 803f 0000 803f
00000040: 0000 803f 0000 803f 0000 803f 0000 803f
00000050: 0000 803f 0000 803f 0000 803f 0000 803f
00000060: 0000 803f 0000 803f 0000 803f 0000 803f
00000070: 0000 803f 0000 803f 0000 803f 0000 803f

conv3.weight f4 [32, 32, 5, 5]
-0.005770443 0.00854212 -0.011101792 -0.034292188 0.01263687 -0.030319594 -0.0029796846 0.0044918917
-0.0051322095 -0.009699959 -0.005410265 -0.007808678 0.0050667897 0.0061204955 0.022889186 0.025623132
0.0151850805 -0.027227 0.009590264 -0.0031764917 0.0057006404 -0.025103085 0.030369278 0.017125387
-0.023550771 0.023175035 3.3713877e-06 -0.033760414 -0.032210287 0.016052708 -0.017270708 -0.013435658
-0.031702828 0.003798768 0.010150734 -0.01294576 0.010502528 0.032113004 -0.030973198 0.026100826
-0.011957901 0.025318556 0.015251454 -0.0342666 0.0058079846 -0.028776992 -0.034760736 0.006220445
0.012954768 -0.0247368 -0.032326426 -0.030725222 -0.032183092 0.008807793 -0.033804942 0.023260247
-0.012956953 0.029056493 -0.032219667 0.023297228 0.02132424 0.015469495 0.017968547 0.028205957
-0.0003157556 0.010888014 -0.023607794 -0.016406845 -0.016168084 0.013272885 -0.027593825 0.004901018
0.0019626021 0.026142083 -0.034532983 0.033028167 -0.026698925 0.028025705 -0.0075418036 0.02445915
-0.033727 0.030318428 -0.029217103 0.027789455 0.011469729 0.033760663 0.01529175 0.01889398
-0.006967254 0.0045123696 -0.008975286 -0.017603884 0.006688405 0.010488007 0.027654927 0.033445988
0.022898924 -0.03413936 -0.015693726 0.03524075 -0.016090605 -0.0063508004 -0.01950474 0.011200834
-0.011287428 -0.008132601 -0.0051727165 0.028638761 0.019561037 0.018887836 -0.033636022 -0.009572733
0.008120012 0.021022566 0.032993834 0.002576653 -0.011929994 -0.008600377 -0.0013409406 -0.0027801022
0.020535294 0.021493655 0.03314231 0.00972259 -0.024963003 -3.27304e-05 -0.03517614 0.02166694
0.008225534 0.0023709908 0.027944516 0.028466482 0.02768227 0.012341216 0.021652907 0.0071817525
-0.0021805353 -0.025547747 0.011193 -0.0020231754 -0.009871146 0.010121398 -0.003912866 0.012396559
-0.012705665 0.025306966 0.0037798993 -0.018892499 0.031720597 -0.03452302 0.01706918 -0.03216698
0.029753167 -0.035254914 -0.012617398 0.03529824 0.020359475 0.018603198 0.03019197 -0.015817216
0.013533432 0.035258118 0.009345956 0.031401347 0.0011356212 -0.007934494 0.033539694 -0.024402827
0.018261693 -0.031160478 -0.0010964014 0.01041653 0.031856913 -0.010409744 -0.00091006607 0.028962638
0.008179601 -0.02498816 0.008067157 0.005134724 0.002578888 -0.035093963 0.026535787 0.032358054
0.010413863 -0.0089601725 -0.020752106 -0.0227518 -0.013562739 0.033185836 0.009209134 -0.033263635
-0.022793978 -0.0029331297 -0.01468526 0.018740747 0.021943696 0.023485944 -0.015675826 0.030646171
0.009297062 0.028399352 -0.024630839 0.007190559 -0.022967175 -0.017753864 -0.014613615 -0.023446146
0.013632309 0.019736119 0.016503848 0.022215199 -0.01811845 0.010198038 0.01012177 -0.017217798
0.021970436 -0.022913143 -0.019355869 0.020192496 0.0011916272 -0.022355575 -0.023340365 0.03534806
-0.026315182 -0.007856408 0.01864592 0.009556524 -0.022781856 -0.031666514 0.031619485 0.028884072
-0.0021181814 -0.014369147 -0.023524124 0.016591411 -0.01062458 0.0109029375 -0.021396464 0.0009824559
0.033164617 -0.025408592 -0.027363114 -0.0047230646 0.016392365 -0.014783796 -0.029806148 -0.0203828
-0.016604418 -0.012327958 0.025876049 0.014224824 -0.03271965 -0.025572758 0.032325175 0.023082927
00000000: fc15 bdbb 40f4 0b3c 4ae4 35bc f775 0cbd
00000010: e00a 4f3c cc60 f8bc d046 43bb b830 933b
00000020: 182c a8bb 94ec 1ebc 9848 b1bb f0df ffbb
00000030: 5007 a63b 708e c83b 1a82 bb3c 9ae7 d13c
00000040: d8ca 783c 280b dfbc 7c20 1d3c b02c 50bb
00000050: 70cc ba3b fca4 cdbc fec8 f83c 8a4a 8c3c
00000060: 8ced c0bc 92d9 bd3c 0040 6236 5c48 0abd
00000070: efee 03bd f880 833c 4d7b 8dbc 3c21 5cbc
00000080: d3da 01bd c0f4 783b 444f 263c 741a 54bc
00000090: cc12 2c3c ed88 033d 81bb fdbc 66d1 d53c
000000a0: 12eb 43bc dc68 cf3c 3ce1 793c 225b 0cbd
000000b0: e850 be3b babd ebbc 4661 0ebd e0d4 cb3b
000000c0: 3c40 543c d4a4 cabc b768 04bd 76b3 fbbc
000000d0: 6bd2 03bd 904e 103c 0d77 0abd 468c be3c
000000e0: 6649 54bc e207 ee3c c5f8 03bd d4d9 be3c
000000f0: 2cb0 ae3c c473 7d3c c632 933c 2e10 e73c
00000100: 008c a5b9 a463 323c 2265 c1bc a667 86bc
00000110: ee72 84bc 8476 593c 720c e2bc b898 a03b
00000120: 009f 003b ec27 d63c 7572 0dbd 8b48 073d
00000130: b4b7 dabc 2a96 e53c 3c21 f7bb 8e5e c83c
00000140: 5325 0abd 5a5e f83c b558 efbc b6a6 e33c
00000150: 88eb 3b3c 9f48 0a3d 408a 7a3c 8cc7 9a3c
00000160: 904d e4bb 80dc 933b 140d 13bc 0536 90bc
00000170: 682a db3b e4d5 2b3c 968c e23c a9fe 083d
00000180: 8696 bb3c b7d5 0bbd 2190 80bc 9b58 103d
00000190: 72d0 83bc 601a d0bb 68c8 9fbc b483 373c
000001a0: e8ee 38bc 9a3e 05bc e47f a9bb d69b ea3c
000001b0: 783e a03c aaba 9a3c edc5 09bd f4d6 1cbc
000001c0: cc09 053c 8437 ac3c 8b24 073d 10dd 283b
000001d0: 0676 43bc 98e8 0cbc 80c2 afba 6032 36bb
000001e0: a239 a83c 7613 b03c 3bc0 073d 804b 1f3c
000001f0: 367f ccbc 0048 09b8 db14 10bd de7e b13c
00000200: 64c4 063c a062 1b3b e6eb e43c 8a32 e93c
00000210: eec5 e23c d032 4a3c 7061 b13c e854 eb3b
00000220: 50e7 0ebb 8249 d1bc d862 373c 4097 04bb
00000230: 96ba 21bc 38d4 253c 8037 80bb f01a 4b3c
00000240: 6c2b 50bc 8e50 cf3c 30b8 773b 71c4 9abc
00000250: 75ed 013d 0368 0dbd aad4 8b3c 86c1 03bd
00000260: eabc f33c 7567 10bd 34b9 4ebc e394 103d
00000270: eac8 a63c bc65 983c 2655 f73c 1b93 81bc
00000280: 54bb 5d3c d16a 103d c81f 193c b39e 003d
00000290: 20d9 943a aeff 01bc eb60 093d 70e8 c7bc
000002a0: 8c99 953c 4244 ffbc 20b5 8fba 18aa 2a3c
000002b0: 657c 023d a28d 2abc 8091 6eba 0e43 ed3c
000002c0: bc03 063c f8b3 ccbc 1c2c 043c 3041 a83b
000002d0: 9002 293b b0be 0fbd 9461 d93c e189 043d
000002e0: e89e 2a3c b0cd 12bc 5200 aabc fc61 babc
000002f0: 4036 5ebc dfed 073d e8e1 163c 733f 08bd
00000300: 70ba babc c039 40bb 729a 70bc 3286 993c
00000310: 44c3 b33c 9865 c03c 976a 80bc ae0d fb3c
00000320: b452 183c c2a5 e83c 9dc6 c9bc c89e eb3b
00000330: a825 bcbc 8d70 91bc f26d 6fbc 2212 c0bc
00000340: 0c5a 5f3c a4ad a13c 1433 873c a6fc b53c
00000350: 256d 94bc ac15 273c c8d5 253c 570c 8dbc
00000360: 58fb b33c 58b4 bbbc 3390 9ebc bc6a a53c
00000370: 6030 9c3a 0a23 b7bc 4b34 bfbc 21c9 103d
00000380: f092 d7bc 2ab8 00bc 54bf 983c f892 1c3c
00000390: 04a1 babc bfb4 01bd 6f83 013d 4a9e ec3c
000003a0: 30d1 0abb 926c 6bbc aab5 c0bc b6ea 873c
000003b0: b812 2ebc 3ca2 323c a347 afbc c0c5 803a
000003c0: 9fd7 073d ae25 d0bc 9c28 e0bc f0c3 9abb
000003d0: 4849 863c bc37 72bc 062c f4bc d4f9 a6bc
000003e0: fd05 88bc 34fb 49bc 02fa d33c 3c0f 693c
000003f0: 0a05 06bd f67d d1bc 6767 043d 6818 bd3c

conv3.bias f4 [32]
-0.029620284 0.026019286 0.00579609 0.028623808 0.022137273 -0.014383115 -0.027531153 -0.008719113
-0.0142361615 0.030275296 0.012012076 -0.028598286 0.01837026 0.01781157 -0.023571022 -0.0019356161
-0.028244821 0.013019081 -0.015219599 0.010934338 -0.034852 -0.008201435 0.0043912344 0.0034447499
-0.012156729 0.024133015 0.02588543 -0.022482496 -0.0057665277 0.020836461 0.034644794 0.023031712
00000000: 3da6 f2bc 6626 d53c 20ed bd3b 7a7c ea3c
00000010: 3a59 b53c 28a7 6bbc 0389 e1bc 9cda 0ebc
00000020: ca3e 69bc e603 f83c 4cce 443c f446 eabc
00000030: 3a7d 963c 92e9 913c 0418 c1bc 80b4 fdba
00000040: af61 e7bc fc4d 553c a05b 79bc f025 333c
00000050: f9c0 0ebd 505f 06bc 58e4 8f3b 50c1 613b
00000060: 042d 47bc 9ab2 c53c ae0d d43c 362d b8bc
00000070: 24f5 bcbb 3ab1 aa3c b3e7 0d3d 00ad bc3c

bn3.weight f4 [32]
0.047855258 0.79043853 0.8746098 0.7840159 0.4189033 0.6297485 0.33778214 0.43218774
0.18724006 0.55329365 0.530098 0.087748885 0.16040426 0.64868516 0.60871404 0.11044121
0.37779325 0.06183946 0.24467784 0.8657251 0.4624012 0.10033101 0.55209225 0.41637284
0.22793925 0.3253252 0.62855524 0.58663183 0.88409686 0.04068899 0.26380444 0.42327523
00000000: e003 443d 2e5a 4a3f 6ee6 5f3f 44b5 483f
00000010: 7e7a d63e 3337 213f c8f1 ac3e b647 dd3e
00000020: dcbb 3f3e a7a4 0d3f 81b4 073f b0b5 b33d
00000030: 0441 243e 3b10 263f afd4 1b3f 002f e23d
00000040: 1e6e c13e 604b 7d3d d48c 7a3e 29a0 5d3f
00000050: dabf ec3e 587a cd3d eb55 0d3f d22e d53e
00000060: e868 693e 0691 a63e ffe8 203f 812d 163f
00000070: 2c54 623f 80a9 263d 6011 873e 88b7 d83e

bn3.bias f4 [32]
0.0 0.0 0.0 0.0 0.0 0.0 0.0 0.0
0.0 0.0 0.0 0.0 0.0 0.0 0.0 0.0
0.0 0.0 0.0 0.0 0.0 0.0 0.0 0.0
0.0 0.0 0.0 0.0 0.0 0.0 0.0 0.0
00000000: 0000 0000 0000 0000 0000 0000 0000 0000
00000010: 0000 0000 0000 0000 0000 0000 0000 0000
00000020: 0000 0000 0000 0000 0000 0000 0000 0000
00000030: 0000 0000 0000 0000 0000 0000 0000 0000
00000040: 0000 0000 0000 0000 0000 0000 0000 0000
00000050: 0000 0000 0000 0000 0000 0000 0000 0000
00000060: 0000 0000 0000 0000 0000 0000 0000 0000
00000070: 0000 0000 0000 0000 0000 0000 0000 0000

bn3.running_mean f4 [32]
0.0 0.0 0.0 0.0 0.0 0.0 0.0 0.0
0.0 0.0 0.0 0.0 0.0 0.0 0.0 0.0
0.0 0.0 0.0 0.0 0.0 0.0 0.0 0.0
0.0 0.0 0.0 0.0 0.0 0.0 0.0 0.0
00000000: 0000 0000 0000 0000 0000 0000 0000 0000
00000010: 0000 0000 0000 0000 0000 0000 0000 0000
00000020: 0000 0000 0000 0000 0000 0000 0000 0000
00000030: 0000 0000 0000 0000 0000 0000 0000 0000
00000040: 0000 0000 0000 0000 0000 0000 0000 0000
00000050: 0000 0000 0000 0000 0000 0000 0000 0000
00000060: 0000 0000 0000 0000 0000 0000 0000 0000
00000070: 0000 0000 0000 0000 0000 0000 0000 0000

bn3.running_var f4 [32]
1.0 1.0 1.0 1.0 1.0 1.0 1.0 1.0
1.0 1.0 1.0 1.0 1.0 1.0 1.0 1.0
1.0 1.0 1.0 1.0 1.0 1.0 1.0 1.0
1.0 1.0 1.0 1.0 1.0 1.0 1.0 1.0
00000000: 0000 803f 0000 803f 0000 803f 0000 803f
00000010: 0000 803f 0000 803f 0000 803f 0000 803f
00000020: 0000 803f 0000 803f 0000 803f 0000 803f
00000030: 0000 803f 0000 803f 0000 803f 0000 803f
00000040: 0000 803f 0000 803f 0000 803f 0000 803f
00000050: 0000 803f 0000 803f 0000 803f 0000 803f
00000060: 0000 803f 0000 803f 0000 803f 0000 803f
00000070: 0000 803f 0000 803f 0000 803f 0000 803f

head.weight f4 [6, 1568]
0.019870859 0.012595393 -0.008285087 0.019577432 0.00193532 0.017046452 -0.014693258 -0.008379523
-0.005385367 0.0092545375 -0.023731504 0.0012293868 0.012532502 -0.009280447 0.01833015 -0.01550088
0.003408946 -0.02360274 0.0051246677 -0.019713346 -0.005415216 -0.0013489649 8.0293044e-05 0.021825314
-0.00042610802 0.014841851 -0.0046767853 -0.017806878 -0.0023588482 -0.0017385185 -0.016520169 -0.003064271
0.019014858 0.0110891685 -0.0045400914 -0.010123131 0.007843759 -0.0141852265 0.007879563 0.018569253
-0.013645151 0.018983215 0.011683896 0.0058737528 0.009391367 0.013657406 -0.015976187 0.013703488
0.017817926 -0.010908297 0.024517715 0.0151842795 0.0062776133 0.008947596 0.024453841 0.0044405144
0.018864855 -0.009926134 0.022266917 -0.022333032 0.008227725 -0.0062065367 0.014684554 0.0151136555
-0.013861424 -0.004221989 -0.007207863 0.023308523 0.008805893 0.0063601434 0.0071687773 -0.016617257
-0.0005144775 -0.017422464 -0.012003071 0.0003227219 0.0021526925 0.01578426 0.007287264 0.025149059
0.012199815 -0.023457626 0.012778539 0.022262707 -0.0020076688 0.015036505 0.014512651 -0.016612418
0.014336087 0.0030313786 0.007831067 0.009646989 0.02075081 0.0049447883 -0.02490447 0.004744077
-0.024803625 0.014416415 0.0018808749 -0.023644133 0.019538768 0.0033491477 0.016280644 0.016651943
0.0025486108 0.011233494 0.008986868 -0.012607838 -0.0047985483 -0.021483393 0.0022008177 -0.01811373
0.01621775 0.009475846 -0.019435123 0.020950638 0.02141926 0.007421393 0.00791502 0.0066267066
-0.007885857 -0.009634613 0.016275622 -0.014631008 -0.0067192223 0.0061329342 -0.014257318 0.0077772774
-0.004199747 0.023176912 0.003220845 0.0026724134 0.010470826 -0.0019492637 0.01123308 0.01643617
0.013533965 0.011853334 -0.022990504 0.006221015 -0.0109934155 -0.009165673 -0.0017393306 -0.016266141
0.024944749 -0.01944478 0.020252317 0.024270281 0.023824159 -0.014263469 -0.01038812 0.021004844
-0.0055629406 0.02137671 0.010739233 -0.0075024273 -0.016372427 0.0016095005 -0.02321929 0.00027857535
-0.02079732 -0.022929788 -0.014891312 -0.019134073 0.0060308874 0.016736638 0.00637009 0.015236769
-0.01023106 -0.011390921 -0.002527168 0.0004209932 -0.0012357179 0.0036622453 0.022690259 -0.006663857
0.018626876 0.0024981797 -0.0030356776 -0.01603178 0.0044459533 -0.01610889 0.0056029893 -0.008141233
-0.022436365 -0.023023563 -0.019507822 -0.019816497 -0.0041317753 0.00935749 -0.00893474 0.024780229
-0.01473545 0.0037974603 0.0050279815 0.015374079 -7.873401e-05 -0.008732282 -0.0035804324 -0.004966313
0.014238354 0.017854318 -0.010380311 0.024058122 -0.014648914 -0.0010343473 0.0005542543 0.015264284
0.012759034 -0.00053748116 0.012516703 0.0011492595 0.022817064 0.022201959 0.006380286 -0.0045798533
0.0017087664 0.024421308 -0.022616336 0.012069933 0.0059410054 -8.432195e-06 0.020202428 -0.00804496
0.0130153 -0.015711855 -0.020826511 -0.021841956 -0.012112231 -0.0035380833 0.015283234 -0.0047702827
0.019880727 0.0013777558 0.005748879 0.023995053 0.009972326 -0.0010519437 -0.01710181 0.01621085
0.020099618 0.0041252244 -0.0063407253 0.02380152 0.023117587 -0.013184926 -0.016582016 -0.007285487
0.01887222 0.0038581472 0.004334355 0.02224404 -0.019234657 -0.009837454 0.017390419 0.014251649
00000000: 36c8 a23c e85c 4e3c 2cbe 07bc da60 a03c
00000010: 90aa fd3a 00a5 8b3c febb 70bc 444a 09bc
00000020: bc77 b0bb 58a0 173c 9268 c2bc 6023 a13a
00000030: 2055 4d3c 040d 18bc 1c29 963c 67f7 7dbc
00000040: a068 5f3b 895a c1bc d4ec a73b e27d a1bc
00000050: 2072 b1bb c0cf b0ba 0063 a838 00cb b23c
00000060: 4067 dfb9 3c2b 733c b83f 99bb bbdf 91bc
00000070: e896 1abb 00df e3ba 4e55 87bc f0d1 48bb
00000080: 0cc5 9b3c 58af 353c 0cc5 94bb 7ddb 25bc
00000090: 1c83 003c 2769 68bc 4819 013c 8c1e 983c
000000a0: e98f 5fbc b082 9b3c d06d 3f3c 9c78 c03b
000000b0: 40de 193c 50c3 5f3c 7ee0 82bc 9884 603c
000000c0: e6f6 913c b7b8 32bc 60d9 c83c 7cc7 783c
000000d0: 70b4 cd3b f098 123c 6c53 c83c bc81 913b
000000e0: 788a 9a3c 39a1 22bc 1c69 b63c c3f3 b6bc
000000f0: 94cd 063c 3460 cbbb 7c97 703c 449f 773c
00000100: 071b 63bc 9c58 8abb f02f ecbb 84f1 be3c
00000110: 9846 103c c068 d03b 10e8 ea3b ea20 88bc
00000120: 00de 06ba 8eb9 8ebc 87a8 44bc 0033 a939
00000130: 3014 0d3b fe4d 813c 00ca ee3b 6605 ce3c
00000140: bce1 473c 352a c0bc 145d 513c 4860 b63c
00000150: 1893 03bb ac5b 763c 78c6 6d3c c416 88bc
00000160: e8e1 6a3c 18aa 463b e04d 003c 680e 1e3c
00000170: 9afd a93c e407 a23b 7604 ccbc 3474 9b3b
00000180: f930 cbbc d432 6c3c b087 f63a 57b1 c1bc
00000190: c40f a03c 607d 5b3b fc5e 853c a869 883c
000001a0: 9806 273b b00c 383c a83d 133c 1b91 4ebc
000001b0: 243d 9dbb f1fd afbc 983b 103b 3f63 94bc
000001c0: 16db 843c 9440 1b3c 6836 9fbc aca0 ab3c
000001d0: 7277 af3c 282f f33b 00ae 013c d824 d93b
000001e0: ae33 01bc 7fda 1dbc 7454 853c e5b6 6fbc
000001f0: ec2c dcbb c8f6 c83b 8797 69bc 88d8 fe3b
00000200: 089e 89bb 82dd bd3c d014 533b a823 2f3b
00000210: d48d 2b3c 707e ffba f40a 383c 26a5 863c
00000220: 90bd 5d3c 7c34 423c 9556 bcbc a8d9 cb3b
00000230: ba1d 34bc 9e2b 16bc 40fa e3ba 9240 85bc
00000240: ee58 cc3c a94a 9fbc 30e8 a53c 78d2 c63c
00000250: e22a c33c 53b1 69bc ef32 2abc 5a12 ac3c
00000260: 5449 b6bb 361e af3c 9cf3 2f3c ecd6 f5bb
00000270: 781f 86bc e0f5 d23a 6136 bebc c00d 9239
00000280: 245f aabc 40d7 bbbc b1fa 73bc 0fbf 9cbc
00000290: c09e c53b 461b 893c 30bc d03b a4a3 793c
000002a0: 2da0 27bc fca0 3abc d89e 25bb c0b8 dc39
000002b0: d0f7 a1ba 4802 703b ece0 b93c 7c5c dabb
000002c0: 6497 983c 80b8 233b 38f2 46bb 1455 83bc
000002d0: 5caf 913b caf6 83bc 4899 b73b ce62 05bc
000002e0: 78cc b7bc e99b bcbc dece 9fbc 3556 a2bc
000002f0: d863 87bb 2850 193c 0463 12bc e8ff ca3c
00000300: f56c 71bc d0de 783b c4c1 a43b 90e3 7b3c
00000310: 001e a5b8 d811 0fbc b0a5 6abb 74bc a2bb
00000320: fc47 693c 3843 923c 2e12 2abc 8a15 c53c
00000330: 0002 70bc f092 87ba 604b 113a 0c17 7a3c
00000340: 440b 513c c0e5 0cba dc12 4d3c c0a2 963a
00000350: daea ba3c e2e0 b53c b811 d13b 9812 96bb
00000360: b0f8 df3a 320f c83c e545 b9bc f8c0 453c
00000370: c4ac c23b 0078 0db7 907f a53c 02cf 03bc
00000380: 203e 553c 26b6 80bc 5c9c aabc e7ed b2bc
00000390: 6172 46bc 30df 67bb 8866 7a3c 0850 9cbb
000003a0: e8dc a23c d095 b43a 1861 bc3b 4691 c43c
000003b0: f862 233c 60e1 89ba 1819 8cbc 9ecc 843c
000003c0: f4a7 a43c e42c 873b dcc5 cfbb 68fb c23c
000003d0: 1861 bd3c 9605 58bc 02d7 87bc 18bb eebb
000003e0: ea99 9a3c f8d8 7c3b 3407 8e3b 2239 b63c
000003f0: 0092 9dbc 462d 21bc 5a76 8e3c c07f 693c

head.bias f4 [6]
-0.011335452 -0.010814399 -0.020650044 0.005058471 -0.0056801215 -0.01720966
00000000: 55b8 39bc e12e 31bc 482a a9bc 88c1 a53b
00000010: 5020 babb 46fb 8cbc
